{"format": "graph-model", "generatedBy": "1.15.2", "convertedBy": "TensorFlow.js Converter v1.4.0", "userDefinedMetadata": {"signature": {"outputs": {"Postprocessor/Slice": {"name": "Postprocessor/Slice"}, "Postprocessor/ExpandDims_1": {"name": "Postprocessor/ExpandDims_1"}}}}, "modelTopology": {"node": [{"name": "image_tensor", "op": "Placeholder", "attr": {"dtype": {"type": "DT_UINT8"}, "shape": {"shape": {"dim": [{"size": "-1"}, {"size": "-1"}, {"size": "-1"}, {"size": "3"}]}}}}, {"name": "Preprocessor/mul/x", "op": "Const", "attr": {"value": {"tensor": {"dtype": "DT_FLOAT", "tensorShape": {}}}, "dtype": {"type": "DT_FLOAT"}}}, {"name": "Preprocessor/sub/y", "op": "Const", "attr": {"dtype": {"type": "DT_FLOAT"}, "value": {"tensor": {"dtype": "DT_FLOAT", "tensorShape": {}}}}}, {"name": "Preprocessor/map/strided_slice/stack", "op": "Const", "attr": {"value": {"tensor": {"dtype": "DT_INT32", "tensorShape": {"dim": [{"size": "1"}]}}}, "dtype": {"type": "DT_INT32"}}}, {"name": "Preprocessor/map/strided_slice/stack_1", "op": "Const", "attr": {"value": {"tensor": {"dtype": "DT_INT32", "tensorShape": {"dim": [{"size": "1"}]}}}, "dtype": {"type": "DT_INT32"}}}, {"name": "Preprocessor/map/TensorArrayUnstack/range/start", "op": "Const", "attr": {"value": {"tensor": {"dtype": "DT_INT32", "tensorShape": {}}}, "dtype": {"type": "DT_INT32"}}}, {"name": "Preprocessor/map/TensorArrayUnstack/range/delta", "op": "Const", "attr": {"value": {"tensor": {"dtype": "DT_INT32", "tensorShape": {}}}, "dtype": {"type": "DT_INT32"}}}, {"name": "BoxPredictor_4/ClassPredictor/act_quant/max", "op": "Const", "attr": {"value": {"tensor": {"dtype": "DT_FLOAT", "tensorShape": {}}}, "dtype": {"type": "DT_FLOAT"}}}, {"name": "BoxPredictor_3/BoxEncodingPredictor/act_quant/min", "op": "Const", "attr": {"value": {"tensor": {"dtype": "DT_FLOAT", "tensorShape": {}}}, "dtype": {"type": "DT_FLOAT"}}}, {"name": "BoxPredictor_5/BoxEncodingPredictor/act_quant/min", "op": "Const", "attr": {"value": {"tensor": {"dtype": "DT_FLOAT", "tensorShape": {}}}, "dtype": {"type": "DT_FLOAT"}}}, {"name": "BoxPredictor_5/BoxEncodingPredictor/act_quant/max", "op": "Const", "attr": {"value": {"tensor": {"dtype": "DT_FLOAT", "tensorShape": {}}}, "dtype": {"type": "DT_FLOAT"}}}, {"name": "FeatureExtractor/MobilenetV1/MobilenetV1/Conv2d_11_pointwise/weights_quant/FakeQuantWithMinMaxVars", "op": "Const", "attr": {"value": {"tensor": {"dtype": "DT_FLOAT", "tensorShape": {"dim": [{"size": "1"}, {"size": "1"}, {"size": "512"}, {"size": "512"}]}}}, "dtype": {"type": "DT_FLOAT"}}}, {"name": "FeatureExtractor/MobilenetV1/MobilenetV1/Conv2d_11_pointwise/act_quant/min", "op": "Const", "attr": {"value": {"tensor": {"dtype": "DT_FLOAT", "tensorShape": {}}}, "dtype": {"type": "DT_FLOAT"}}}, {"name": "BoxPredictor_3/BoxEncodingPredictor/act_quant/max", "op": "Const", "attr": {"value": {"tensor": {"dtype": "DT_FLOAT", "tensorShape": {}}}, "dtype": {"type": "DT_FLOAT"}}}, {"name": "FeatureExtractor/MobilenetV1/MobilenetV1/Conv2d_11_pointwise/act_quant/max", "op": "Const", "attr": {"value": {"tensor": {"dtype": "DT_FLOAT", "tensorShape": {}}}, "dtype": {"type": "DT_FLOAT"}}}, {"name": "FeatureExtractor/MobilenetV1/MobilenetV1/Conv2d_12_depthwise/weights_quant/FakeQuantWithMinMaxVars", "op": "Const", "attr": {"value": {"tensor": {"dtype": "DT_FLOAT", "tensorShape": {"dim": [{"size": "3"}, {"size": "3"}, {"size": "512"}, {"size": "1"}]}}}, "dtype": {"type": "DT_FLOAT"}}}, {"name": "FeatureExtractor/MobilenetV1/MobilenetV1/Conv2d_12_pointwise/weights_quant/FakeQuantWithMinMaxVars", "op": "Const", "attr": {"value": {"tensor": {"dtype": "DT_FLOAT", "tensorShape": {"dim": [{"size": "1"}, {"size": "1"}, {"size": "512"}, {"size": "1024"}]}}}, "dtype": {"type": "DT_FLOAT"}}}, {"name": "BoxPredictor_3/ClassPredictor/weights_quant/FakeQuantWithMinMaxVars", "op": "Const", "attr": {"value": {"tensor": {"dtype": "DT_FLOAT", "tensorShape": {"dim": [{"size": "1"}, {"size": "1"}, {"size": "256"}, {"size": "30"}]}}}, "dtype": {"type": "DT_FLOAT"}}}, {"name": "BoxPredictor_3/ClassPredictor/act_quant/min", "op": "Const", "attr": {"value": {"tensor": {"dtype": "DT_FLOAT", "tensorShape": {}}}, "dtype": {"type": "DT_FLOAT"}}}, {"name": "FeatureExtractor/MobilenetV1/MobilenetV1/Conv2d_13_depthwise/weights_quant/FakeQuantWithMinMaxVars", "op": "Const", "attr": {"value": {"tensor": {"dtype": "DT_FLOAT", "tensorShape": {"dim": [{"size": "3"}, {"size": "3"}, {"size": "1024"}, {"size": "1"}]}}}, "dtype": {"type": "DT_FLOAT"}}}, {"name": "BoxPredictor_4/ClassPredictor/weights_quant/FakeQuantWithMinMaxVars", "op": "Const", "attr": {"dtype": {"type": "DT_FLOAT"}, "value": {"tensor": {"dtype": "DT_FLOAT", "tensorShape": {"dim": [{"size": "1"}, {"size": "1"}, {"size": "256"}, {"size": "30"}]}}}}}, {"name": "BoxPredictor_3/ClassPredictor/act_quant/max", "op": "Const", "attr": {"dtype": {"type": "DT_FLOAT"}, "value": {"tensor": {"dtype": "DT_FLOAT", "tensorShape": {}}}}}, {"name": "FeatureExtractor/MobilenetV1/MobilenetV1/Conv2d_13_pointwise/weights_quant/FakeQuantWithMinMaxVars", "op": "Const", "attr": {"value": {"tensor": {"dtype": "DT_FLOAT", "tensorShape": {"dim": [{"size": "1"}, {"size": "1"}, {"size": "1024"}, {"size": "1024"}]}}}, "dtype": {"type": "DT_FLOAT"}}}, {"name": "FeatureExtractor/MobilenetV1/Conv2d_13_pointwise_1_Conv2d_2_1x1_256/weights_quant/FakeQuantWithMinMaxVars", "op": "Const", "attr": {"value": {"tensor": {"dtype": "DT_FLOAT", "tensorShape": {"dim": [{"size": "1"}, {"size": "1"}, {"size": "1024"}, {"size": "256"}]}}}, "dtype": {"type": "DT_FLOAT"}}}, {"name": "FeatureExtractor/MobilenetV1/Conv2d_13_pointwise_1_Conv2d_2_1x1_256/act_quant/min", "op": "Const", "attr": {"value": {"tensor": {"dtype": "DT_FLOAT", "tensorShape": {}}}, "dtype": {"type": "DT_FLOAT"}}}, {"name": "BoxPredictor_4/ClassPredictor/act_quant/min", "op": "Const", "attr": {"value": {"tensor": {"dtype": "DT_FLOAT", "tensorShape": {}}}, "dtype": {"type": "DT_FLOAT"}}}, {"name": "FeatureExtractor/MobilenetV1/Conv2d_13_pointwise_1_Conv2d_2_1x1_256/act_quant/max", "op": "Const", "attr": {"value": {"tensor": {"dtype": "DT_FLOAT", "tensorShape": {}}}, "dtype": {"type": "DT_FLOAT"}}}, {"name": "BoxPredictor_4/BoxEncodingPredictor/weights_quant/FakeQuantWithMinMaxVars", "op": "Const", "attr": {"value": {"tensor": {"dtype": "DT_FLOAT", "tensorShape": {"dim": [{"size": "1"}, {"size": "1"}, {"size": "256"}, {"size": "24"}]}}}, "dtype": {"type": "DT_FLOAT"}}}, {"name": "FeatureExtractor/MobilenetV1/Conv2d_13_pointwise_2_Conv2d_2_3x3_s2_512/weights_quant/FakeQuantWithMinMaxVars", "op": "Const", "attr": {"value": {"tensor": {"dtype": "DT_FLOAT", "tensorShape": {"dim": [{"size": "3"}, {"size": "3"}, {"size": "256"}, {"size": "512"}]}}}, "dtype": {"type": "DT_FLOAT"}}}, {"name": "FeatureExtractor/MobilenetV1/Conv2d_13_pointwise_2_Conv2d_2_3x3_s2_512/act_quant/min", "op": "Const", "attr": {"dtype": {"type": "DT_FLOAT"}, "value": {"tensor": {"dtype": "DT_FLOAT", "tensorShape": {}}}}}, {"name": "BoxPredictor_4/BoxEncodingPredictor/act_quant/min", "op": "Const", "attr": {"value": {"tensor": {"dtype": "DT_FLOAT", "tensorShape": {}}}, "dtype": {"type": "DT_FLOAT"}}}, {"name": "FeatureExtractor/MobilenetV1/Conv2d_13_pointwise_2_Conv2d_2_3x3_s2_512/act_quant/max", "op": "Const", "attr": {"value": {"tensor": {"dtype": "DT_FLOAT", "tensorShape": {}}}, "dtype": {"type": "DT_FLOAT"}}}, {"name": "BoxPredictor_4/BoxEncodingPredictor/act_quant/max", "op": "Const", "attr": {"value": {"tensor": {"dtype": "DT_FLOAT", "tensorShape": {}}}, "dtype": {"type": "DT_FLOAT"}}}, {"name": "FeatureExtractor/MobilenetV1/Conv2d_13_pointwise_1_Conv2d_3_1x1_128/weights_quant/FakeQuantWithMinMaxVars", "op": "Const", "attr": {"value": {"tensor": {"dtype": "DT_FLOAT", "tensorShape": {"dim": [{"size": "1"}, {"size": "1"}, {"size": "512"}, {"size": "128"}]}}}, "dtype": {"type": "DT_FLOAT"}}}, {"name": "FeatureExtractor/MobilenetV1/Conv2d_13_pointwise_1_Conv2d_3_1x1_128/act_quant/min", "op": "Const", "attr": {"value": {"tensor": {"dtype": "DT_FLOAT", "tensorShape": {}}}, "dtype": {"type": "DT_FLOAT"}}}, {"name": "FeatureExtractor/MobilenetV1/Conv2d_13_pointwise_1_Conv2d_3_1x1_128/act_quant/max", "op": "Const", "attr": {"value": {"tensor": {"dtype": "DT_FLOAT", "tensorShape": {}}}, "dtype": {"type": "DT_FLOAT"}}}, {"name": "FeatureExtractor/MobilenetV1/Conv2d_13_pointwise_2_Conv2d_3_3x3_s2_256/weights_quant/FakeQuantWithMinMaxVars", "op": "Const", "attr": {"value": {"tensor": {"dtype": "DT_FLOAT", "tensorShape": {"dim": [{"size": "3"}, {"size": "3"}, {"size": "128"}, {"size": "256"}]}}}, "dtype": {"type": "DT_FLOAT"}}}, {"name": "FeatureExtractor/MobilenetV1/Conv2d_13_pointwise_2_Conv2d_3_3x3_s2_256/act_quant/min", "op": "Const", "attr": {"value": {"tensor": {"dtype": "DT_FLOAT", "tensorShape": {}}}, "dtype": {"type": "DT_FLOAT"}}}, {"name": "FeatureExtractor/MobilenetV1/Conv2d_13_pointwise_2_Conv2d_3_3x3_s2_256/act_quant/max", "op": "Const", "attr": {"value": {"tensor": {"dtype": "DT_FLOAT", "tensorShape": {}}}, "dtype": {"type": "DT_FLOAT"}}}, {"name": "FeatureExtractor/MobilenetV1/Conv2d_13_pointwise_1_Conv2d_4_1x1_128/weights_quant/FakeQuantWithMinMaxVars", "op": "Const", "attr": {"value": {"tensor": {"dtype": "DT_FLOAT", "tensorShape": {"dim": [{"size": "1"}, {"size": "1"}, {"size": "256"}, {"size": "128"}]}}}, "dtype": {"type": "DT_FLOAT"}}}, {"name": "FeatureExtractor/MobilenetV1/Conv2d_13_pointwise_1_Conv2d_4_1x1_128/act_quant/min", "op": "Const", "attr": {"value": {"tensor": {"dtype": "DT_FLOAT", "tensorShape": {}}}, "dtype": {"type": "DT_FLOAT"}}}, {"name": "FeatureExtractor/MobilenetV1/Conv2d_13_pointwise_1_Conv2d_4_1x1_128/act_quant/max", "op": "Const", "attr": {"value": {"tensor": {"dtype": "DT_FLOAT", "tensorShape": {}}}, "dtype": {"type": "DT_FLOAT"}}}, {"name": "FeatureExtractor/MobilenetV1/Conv2d_13_pointwise_2_Conv2d_4_3x3_s2_256/weights_quant/FakeQuantWithMinMaxVars", "op": "Const", "attr": {"value": {"tensor": {"dtype": "DT_FLOAT", "tensorShape": {"dim": [{"size": "3"}, {"size": "3"}, {"size": "128"}, {"size": "256"}]}}}, "dtype": {"type": "DT_FLOAT"}}}, {"name": "FeatureExtractor/MobilenetV1/Conv2d_13_pointwise_2_Conv2d_4_3x3_s2_256/act_quant/min", "op": "Const", "attr": {"value": {"tensor": {"dtype": "DT_FLOAT", "tensorShape": {}}}, "dtype": {"type": "DT_FLOAT"}}}, {"name": "FeatureExtractor/MobilenetV1/Conv2d_13_pointwise_2_Conv2d_4_3x3_s2_256/act_quant/max", "op": "Const", "attr": {"value": {"tensor": {"dtype": "DT_FLOAT", "tensorShape": {}}}, "dtype": {"type": "DT_FLOAT"}}}, {"name": "FeatureExtractor/MobilenetV1/Conv2d_13_pointwise_1_Conv2d_5_1x1_64/weights_quant/FakeQuantWithMinMaxVars", "op": "Const", "attr": {"value": {"tensor": {"dtype": "DT_FLOAT", "tensorShape": {"dim": [{"size": "1"}, {"size": "1"}, {"size": "256"}, {"size": "64"}]}}}, "dtype": {"type": "DT_FLOAT"}}}, {"name": "FeatureExtractor/MobilenetV1/Conv2d_13_pointwise_1_Conv2d_5_1x1_64/act_quant/min", "op": "Const", "attr": {"value": {"tensor": {"dtype": "DT_FLOAT", "tensorShape": {}}}, "dtype": {"type": "DT_FLOAT"}}}, {"name": "BoxPredictor_0/BoxEncodingPredictor/biases", "op": "Const", "attr": {"value": {"tensor": {"dtype": "DT_FLOAT", "tensorShape": {"dim": [{"size": "12"}]}}}, "dtype": {"type": "DT_FLOAT"}}}, {"name": "FeatureExtractor/MobilenetV1/Conv2d_13_pointwise_1_Conv2d_5_1x1_64/act_quant/max", "op": "Const", "attr": {"value": {"tensor": {"dtype": "DT_FLOAT", "tensorShape": {}}}, "dtype": {"type": "DT_FLOAT"}}}, {"name": "BoxPredictor_0/Reshape/shape/1", "op": "Const", "attr": {"value": {"tensor": {"dtype": "DT_INT32", "tensorShape": {}}}, "dtype": {"type": "DT_INT32"}}}, {"name": "BoxPredictor_0/Reshape/shape/3", "op": "Const", "attr": {"value": {"tensor": {"dtype": "DT_INT32", "tensorShape": {}}}, "dtype": {"type": "DT_INT32"}}}, {"name": "BoxPredictor_0/ClassPredictor/biases", "op": "Const", "attr": {"value": {"tensor": {"dtype": "DT_FLOAT", "tensorShape": {"dim": [{"size": "15"}]}}}, "dtype": {"type": "DT_FLOAT"}}}, {"name": "BoxPredictor_0/Reshape_1/shape/2", "op": "Const", "attr": {"value": {"tensor": {"dtype": "DT_INT32", "tensorShape": {}}}, "dtype": {"type": "DT_INT32"}}}, {"name": "BoxPredictor_1/BoxEncodingPredictor/biases", "op": "Const", "attr": {"value": {"tensor": {"dtype": "DT_FLOAT", "tensorShape": {"dim": [{"size": "24"}]}}}, "dtype": {"type": "DT_FLOAT"}}}, {"name": "BoxPredictor_1/ClassPredictor/biases", "op": "Const", "attr": {"value": {"tensor": {"dtype": "DT_FLOAT", "tensorShape": {"dim": [{"size": "30"}]}}}, "dtype": {"type": "DT_FLOAT"}}}, {"name": "FeatureExtractor/MobilenetV1/Conv2d_13_pointwise_2_Conv2d_5_3x3_s2_128/weights_quant/FakeQuantWithMinMaxVars", "op": "Const", "attr": {"value": {"tensor": {"dtype": "DT_FLOAT", "tensorShape": {"dim": [{"size": "3"}, {"size": "3"}, {"size": "64"}, {"size": "128"}]}}}, "dtype": {"type": "DT_FLOAT"}}}, {"name": "BoxPredictor_2/BoxEncodingPredictor/biases", "op": "Const", "attr": {"value": {"tensor": {"dtype": "DT_FLOAT", "tensorShape": {"dim": [{"size": "24"}]}}}, "dtype": {"type": "DT_FLOAT"}}}, {"name": "BoxPredictor_2/ClassPredictor/biases", "op": "Const", "attr": {"value": {"tensor": {"dtype": "DT_FLOAT", "tensorShape": {"dim": [{"size": "30"}]}}}, "dtype": {"type": "DT_FLOAT"}}}, {"name": "FeatureExtractor/MobilenetV1/Conv2d_13_pointwise_2_Conv2d_5_3x3_s2_128/act_quant/min", "op": "Const", "attr": {"value": {"tensor": {"dtype": "DT_FLOAT", "tensorShape": {}}}, "dtype": {"type": "DT_FLOAT"}}}, {"name": "BoxPredictor_3/BoxEncodingPredictor/biases", "op": "Const", "attr": {"dtype": {"type": "DT_FLOAT"}, "value": {"tensor": {"dtype": "DT_FLOAT", "tensorShape": {"dim": [{"size": "24"}]}}}}}, {"name": "FeatureExtractor/MobilenetV1/Conv2d_13_pointwise_2_Conv2d_5_3x3_s2_128/act_quant/max", "op": "Const", "attr": {"value": {"tensor": {"dtype": "DT_FLOAT", "tensorShape": {}}}, "dtype": {"type": "DT_FLOAT"}}}, {"name": "BoxPredictor_3/ClassPredictor/biases", "op": "Const", "attr": {"value": {"tensor": {"dtype": "DT_FLOAT", "tensorShape": {"dim": [{"size": "30"}]}}}, "dtype": {"type": "DT_FLOAT"}}}, {"name": "BoxPredictor_4/BoxEncodingPredictor/biases", "op": "Const", "attr": {"value": {"tensor": {"dtype": "DT_FLOAT", "tensorShape": {"dim": [{"size": "24"}]}}}, "dtype": {"type": "DT_FLOAT"}}}, {"name": "BoxPredictor_4/ClassPredictor/biases", "op": "Const", "attr": {"value": {"tensor": {"dtype": "DT_FLOAT", "tensorShape": {"dim": [{"size": "30"}]}}}, "dtype": {"type": "DT_FLOAT"}}}, {"name": "BoxPredictor_5/BoxEncodingPredictor/weights_quant/FakeQuantWithMinMaxVars", "op": "Const", "attr": {"value": {"tensor": {"dtype": "DT_FLOAT", "tensorShape": {"dim": [{"size": "1"}, {"size": "1"}, {"size": "128"}, {"size": "24"}]}}}, "dtype": {"type": "DT_FLOAT"}}}, {"name": "BoxPredictor_5/BoxEncodingPredictor/biases", "op": "Const", "attr": {"value": {"tensor": {"dtype": "DT_FLOAT", "tensorShape": {"dim": [{"size": "24"}]}}}, "dtype": {"type": "DT_FLOAT"}}}, {"name": "BoxPredictor_5/ClassPredictor/biases", "op": "Const", "attr": {"dtype": {"type": "DT_FLOAT"}, "value": {"tensor": {"dtype": "DT_FLOAT", "tensorShape": {"dim": [{"size": "30"}]}}}}}, {"name": "Postprocessor/strided_slice_1/stack_1", "op": "Const", "attr": {"value": {"tensor": {"dtype": "DT_INT32", "tensorShape": {"dim": [{"size": "1"}]}}}, "dtype": {"type": "DT_INT32"}}}, {"name": "Postprocessor/Reshape/shape", "op": "Const", "attr": {"value": {"tensor": {"dtype": "DT_INT32", "tensorShape": {"dim": [{"size": "2"}]}}}, "dtype": {"type": "DT_INT32"}}}, {"name": "Postprocessor/Decode/get_center_coordinates_and_sizes/transpose/perm", "op": "Const", "attr": {"value": {"tensor": {"dtype": "DT_INT32", "tensorShape": {"dim": [{"size": "2"}]}}}, "dtype": {"type": "DT_INT32"}}}, {"name": "Postprocessor/ExpandDims_1/dim", "op": "Const", "attr": {"value": {"tensor": {"dtype": "DT_INT32", "tensorShape": {}}}, "dtype": {"type": "DT_INT32"}}}, {"name": "Postprocessor/Slice/begin", "op": "Const", "attr": {"dtype": {"type": "DT_INT32"}, "value": {"tensor": {"dtype": "DT_INT32", "tensorShape": {"dim": [{"size": "3"}]}}}}}, {"name": "Postprocessor/Slice/size", "op": "Const", "attr": {"value": {"tensor": {"dtype": "DT_INT32", "tensorShape": {"dim": [{"size": "3"}]}}}, "dtype": {"type": "DT_INT32"}}}, {"name": "BoxPredictor_5/ClassPredictor/act_quant/min", "op": "Const", "attr": {"value": {"tensor": {"dtype": "DT_FLOAT", "tensorShape": {}}}, "dtype": {"type": "DT_FLOAT"}}}, {"name": "BoxPredictor_5/ClassPredictor/act_quant/max", "op": "Const", "attr": {"value": {"tensor": {"dtype": "DT_FLOAT", "tensorShape": {}}}, "dtype": {"type": "DT_FLOAT"}}}, {"name": "BoxPredictor_5/ClassPredictor/weights_quant/FakeQuantWithMinMaxVars", "op": "Const", "attr": {"value": {"tensor": {"dtype": "DT_FLOAT", "tensorShape": {"dim": [{"size": "1"}, {"size": "1"}, {"size": "128"}, {"size": "30"}]}}}, "dtype": {"type": "DT_FLOAT"}}}, {"name": "FeatureExtractor/MobilenetV1/MobilenetV1/Conv2d_0/BatchNorm_Fold/bias", "op": "Const", "attr": {"value": {"tensor": {"dtype": "DT_FLOAT", "tensorShape": {"dim": [{"size": "32"}]}}}, "dtype": {"type": "DT_FLOAT"}}}, {"name": "FeatureExtractor/MobilenetV1/MobilenetV1/Conv2d_1_depthwise/BatchNorm_Fold/bias", "op": "Const", "attr": {"value": {"tensor": {"dtype": "DT_FLOAT", "tensorShape": {"dim": [{"size": "32"}]}}}, "dtype": {"type": "DT_FLOAT"}}}, {"name": "FeatureExtractor/MobilenetV1/MobilenetV1/Conv2d_1_pointwise/BatchNorm_Fold/bias", "op": "Const", "attr": {"value": {"tensor": {"dtype": "DT_FLOAT", "tensorShape": {"dim": [{"size": "64"}]}}}, "dtype": {"type": "DT_FLOAT"}}}, {"name": "FeatureExtractor/MobilenetV1/MobilenetV1/Conv2d_2_depthwise/BatchNorm_Fold/bias", "op": "Const", "attr": {"value": {"tensor": {"dtype": "DT_FLOAT", "tensorShape": {"dim": [{"size": "64"}]}}}, "dtype": {"type": "DT_FLOAT"}}}, {"name": "FeatureExtractor/MobilenetV1/MobilenetV1/Conv2d_2_pointwise/BatchNorm_Fold/bias", "op": "Const", "attr": {"value": {"tensor": {"dtype": "DT_FLOAT", "tensorShape": {"dim": [{"size": "128"}]}}}, "dtype": {"type": "DT_FLOAT"}}}, {"name": "FeatureExtractor/MobilenetV1/MobilenetV1/Conv2d_3_depthwise/BatchNorm_Fold/bias", "op": "Const", "attr": {"value": {"tensor": {"dtype": "DT_FLOAT", "tensorShape": {"dim": [{"size": "128"}]}}}, "dtype": {"type": "DT_FLOAT"}}}, {"name": "FeatureExtractor/MobilenetV1/MobilenetV1/Conv2d_3_pointwise/BatchNorm_Fold/bias", "op": "Const", "attr": {"value": {"tensor": {"dtype": "DT_FLOAT", "tensorShape": {"dim": [{"size": "128"}]}}}, "dtype": {"type": "DT_FLOAT"}}}, {"name": "FeatureExtractor/MobilenetV1/MobilenetV1/Conv2d_4_depthwise/BatchNorm_Fold/bias", "op": "Const", "attr": {"value": {"tensor": {"dtype": "DT_FLOAT", "tensorShape": {"dim": [{"size": "128"}]}}}, "dtype": {"type": "DT_FLOAT"}}}, {"name": "FeatureExtractor/MobilenetV1/MobilenetV1/Conv2d_4_pointwise/BatchNorm_Fold/bias", "op": "Const", "attr": {"dtype": {"type": "DT_FLOAT"}, "value": {"tensor": {"dtype": "DT_FLOAT", "tensorShape": {"dim": [{"size": "256"}]}}}}}, {"name": "FeatureExtractor/MobilenetV1/MobilenetV1/Conv2d_5_depthwise/BatchNorm_Fold/bias", "op": "Const", "attr": {"value": {"tensor": {"dtype": "DT_FLOAT", "tensorShape": {"dim": [{"size": "256"}]}}}, "dtype": {"type": "DT_FLOAT"}}}, {"name": "FeatureExtractor/MobilenetV1/MobilenetV1/Conv2d_5_pointwise/BatchNorm_Fold/bias", "op": "Const", "attr": {"value": {"tensor": {"dtype": "DT_FLOAT", "tensorShape": {"dim": [{"size": "256"}]}}}, "dtype": {"type": "DT_FLOAT"}}}, {"name": "FeatureExtractor/MobilenetV1/MobilenetV1/Conv2d_6_depthwise/BatchNorm_Fold/bias", "op": "Const", "attr": {"value": {"tensor": {"dtype": "DT_FLOAT", "tensorShape": {"dim": [{"size": "256"}]}}}, "dtype": {"type": "DT_FLOAT"}}}, {"name": "FeatureExtractor/MobilenetV1/MobilenetV1/Conv2d_6_pointwise/BatchNorm_Fold/bias", "op": "Const", "attr": {"value": {"tensor": {"dtype": "DT_FLOAT", "tensorShape": {"dim": [{"size": "512"}]}}}, "dtype": {"type": "DT_FLOAT"}}}, {"name": "FeatureExtractor/MobilenetV1/MobilenetV1/Conv2d_7_depthwise/BatchNorm_Fold/bias", "op": "Const", "attr": {"value": {"tensor": {"dtype": "DT_FLOAT", "tensorShape": {"dim": [{"size": "512"}]}}}, "dtype": {"type": "DT_FLOAT"}}}, {"name": "FeatureExtractor/MobilenetV1/MobilenetV1/Conv2d_7_pointwise/BatchNorm_Fold/bias", "op": "Const", "attr": {"value": {"tensor": {"dtype": "DT_FLOAT", "tensorShape": {"dim": [{"size": "512"}]}}}, "dtype": {"type": "DT_FLOAT"}}}, {"name": "FeatureExtractor/MobilenetV1/MobilenetV1/Conv2d_8_depthwise/BatchNorm_Fold/bias", "op": "Const", "attr": {"value": {"tensor": {"dtype": "DT_FLOAT", "tensorShape": {"dim": [{"size": "512"}]}}}, "dtype": {"type": "DT_FLOAT"}}}, {"name": "FeatureExtractor/MobilenetV1/MobilenetV1/Conv2d_8_pointwise/BatchNorm_Fold/bias", "op": "Const", "attr": {"value": {"tensor": {"dtype": "DT_FLOAT", "tensorShape": {"dim": [{"size": "512"}]}}}, "dtype": {"type": "DT_FLOAT"}}}, {"name": "FeatureExtractor/MobilenetV1/MobilenetV1/Conv2d_9_depthwise/BatchNorm_Fold/bias", "op": "Const", "attr": {"value": {"tensor": {"dtype": "DT_FLOAT", "tensorShape": {"dim": [{"size": "512"}]}}}, "dtype": {"type": "DT_FLOAT"}}}, {"name": "FeatureExtractor/MobilenetV1/MobilenetV1/Conv2d_9_pointwise/BatchNorm_Fold/bias", "op": "Const", "attr": {"value": {"tensor": {"dtype": "DT_FLOAT", "tensorShape": {"dim": [{"size": "512"}]}}}, "dtype": {"type": "DT_FLOAT"}}}, {"name": "FeatureExtractor/MobilenetV1/MobilenetV1/Conv2d_10_depthwise/BatchNorm_Fold/bias", "op": "Const", "attr": {"value": {"tensor": {"dtype": "DT_FLOAT", "tensorShape": {"dim": [{"size": "512"}]}}}, "dtype": {"type": "DT_FLOAT"}}}, {"name": "FeatureExtractor/MobilenetV1/MobilenetV1/Conv2d_10_pointwise/BatchNorm_Fold/bias", "op": "Const", "attr": {"value": {"tensor": {"dtype": "DT_FLOAT", "tensorShape": {"dim": [{"size": "512"}]}}}, "dtype": {"type": "DT_FLOAT"}}}, {"name": "FeatureExtractor/MobilenetV1/MobilenetV1/Conv2d_11_depthwise/BatchNorm_Fold/bias", "op": "Const", "attr": {"value": {"tensor": {"dtype": "DT_FLOAT", "tensorShape": {"dim": [{"size": "512"}]}}}, "dtype": {"type": "DT_FLOAT"}}}, {"name": "FeatureExtractor/MobilenetV1/MobilenetV1/Conv2d_11_pointwise/BatchNorm_Fold/bias", "op": "Const", "attr": {"value": {"tensor": {"dtype": "DT_FLOAT", "tensorShape": {"dim": [{"size": "512"}]}}}, "dtype": {"type": "DT_FLOAT"}}}, {"name": "FeatureExtractor/MobilenetV1/MobilenetV1/Conv2d_12_depthwise/BatchNorm_Fold/bias", "op": "Const", "attr": {"value": {"tensor": {"dtype": "DT_FLOAT", "tensorShape": {"dim": [{"size": "512"}]}}}, "dtype": {"type": "DT_FLOAT"}}}, {"name": "FeatureExtractor/MobilenetV1/MobilenetV1/Conv2d_12_pointwise/BatchNorm_Fold/bias", "op": "Const", "attr": {"value": {"tensor": {"dtype": "DT_FLOAT", "tensorShape": {"dim": [{"size": "1024"}]}}}, "dtype": {"type": "DT_FLOAT"}}}, {"name": "FeatureExtractor/MobilenetV1/MobilenetV1/Conv2d_13_depthwise/BatchNorm_Fold/bias", "op": "Const", "attr": {"value": {"tensor": {"dtype": "DT_FLOAT", "tensorShape": {"dim": [{"size": "1024"}]}}}, "dtype": {"type": "DT_FLOAT"}}}, {"name": "FeatureExtractor/MobilenetV1/MobilenetV1/Conv2d_13_pointwise/BatchNorm_Fold/bias", "op": "Const", "attr": {"value": {"tensor": {"dtype": "DT_FLOAT", "tensorShape": {"dim": [{"size": "1024"}]}}}, "dtype": {"type": "DT_FLOAT"}}}, {"name": "FeatureExtractor/MobilenetV1/Conv2d_13_pointwise_1_Conv2d_2_1x1_256/BatchNorm_Fold/bias", "op": "Const", "attr": {"value": {"tensor": {"dtype": "DT_FLOAT", "tensorShape": {"dim": [{"size": "256"}]}}}, "dtype": {"type": "DT_FLOAT"}}}, {"name": "FeatureExtractor/MobilenetV1/Conv2d_13_pointwise_2_Conv2d_2_3x3_s2_512/BatchNorm_Fold/bias", "op": "Const", "attr": {"dtype": {"type": "DT_FLOAT"}, "value": {"tensor": {"dtype": "DT_FLOAT", "tensorShape": {"dim": [{"size": "512"}]}}}}}, {"name": "FeatureExtractor/MobilenetV1/Conv2d_13_pointwise_1_Conv2d_3_1x1_128/BatchNorm_Fold/bias", "op": "Const", "attr": {"value": {"tensor": {"dtype": "DT_FLOAT", "tensorShape": {"dim": [{"size": "128"}]}}}, "dtype": {"type": "DT_FLOAT"}}}, {"name": "FeatureExtractor/MobilenetV1/Conv2d_13_pointwise_2_Conv2d_3_3x3_s2_256/BatchNorm_Fold/bias", "op": "Const", "attr": {"value": {"tensor": {"dtype": "DT_FLOAT", "tensorShape": {"dim": [{"size": "256"}]}}}, "dtype": {"type": "DT_FLOAT"}}}, {"name": "FeatureExtractor/MobilenetV1/Conv2d_13_pointwise_1_Conv2d_4_1x1_128/BatchNorm_Fold/bias", "op": "Const", "attr": {"value": {"tensor": {"dtype": "DT_FLOAT", "tensorShape": {"dim": [{"size": "128"}]}}}, "dtype": {"type": "DT_FLOAT"}}}, {"name": "FeatureExtractor/MobilenetV1/Conv2d_13_pointwise_2_Conv2d_4_3x3_s2_256/BatchNorm_Fold/bias", "op": "Const", "attr": {"value": {"tensor": {"dtype": "DT_FLOAT", "tensorShape": {"dim": [{"size": "256"}]}}}, "dtype": {"type": "DT_FLOAT"}}}, {"name": "FeatureExtractor/MobilenetV1/Conv2d_13_pointwise_1_Conv2d_5_1x1_64/BatchNorm_Fold/bias", "op": "Const", "attr": {"value": {"tensor": {"dtype": "DT_FLOAT", "tensorShape": {"dim": [{"size": "64"}]}}}, "dtype": {"type": "DT_FLOAT"}}}, {"name": "FeatureExtractor/MobilenetV1/Conv2d_13_pointwise_2_Conv2d_5_3x3_s2_128/BatchNorm_Fold/bias", "op": "Const", "attr": {"value": {"tensor": {"dtype": "DT_FLOAT", "tensorShape": {"dim": [{"size": "128"}]}}}, "dtype": {"type": "DT_FLOAT"}}}, {"name": "FeatureExtractor/MobilenetV1/MobilenetV1/Conv2d_0/weights_quant/FakeQuantWithMinMaxVars", "op": "Const", "attr": {"value": {"tensor": {"dtype": "DT_FLOAT", "tensorShape": {"dim": [{"size": "3"}, {"size": "3"}, {"size": "3"}, {"size": "32"}]}}}, "dtype": {"type": "DT_FLOAT"}}}, {"name": "FeatureExtractor/MobilenetV1/MobilenetV1/Conv2d_1_depthwise/weights_quant/FakeQuantWithMinMaxVars", "op": "Const", "attr": {"value": {"tensor": {"dtype": "DT_FLOAT", "tensorShape": {"dim": [{"size": "3"}, {"size": "3"}, {"size": "32"}, {"size": "1"}]}}}, "dtype": {"type": "DT_FLOAT"}}}, {"name": "BoxPredictor_0/BoxEncodingPredictor/weights_quant/FakeQuantWithMinMaxVars", "op": "Const", "attr": {"value": {"tensor": {"dtype": "DT_FLOAT", "tensorShape": {"dim": [{"size": "1"}, {"size": "1"}, {"size": "512"}, {"size": "12"}]}}}, "dtype": {"type": "DT_FLOAT"}}}, {"name": "FeatureExtractor/MobilenetV1/MobilenetV1/Conv2d_1_pointwise/weights_quant/FakeQuantWithMinMaxVars", "op": "Const", "attr": {"value": {"tensor": {"dtype": "DT_FLOAT", "tensorShape": {"dim": [{"size": "1"}, {"size": "1"}, {"size": "32"}, {"size": "64"}]}}}, "dtype": {"type": "DT_FLOAT"}}}, {"name": "BoxPredictor_0/BoxEncodingPredictor/act_quant/min", "op": "Const", "attr": {"value": {"tensor": {"dtype": "DT_FLOAT", "tensorShape": {}}}, "dtype": {"type": "DT_FLOAT"}}}, {"name": "FeatureExtractor/MobilenetV1/MobilenetV1/Conv2d_1_pointwise/act_quant/max", "op": "Const", "attr": {"value": {"tensor": {"dtype": "DT_FLOAT", "tensorShape": {}}}, "dtype": {"type": "DT_FLOAT"}}}, {"name": "BoxPredictor_0/BoxEncodingPredictor/act_quant/max", "op": "Const", "attr": {"value": {"tensor": {"dtype": "DT_FLOAT", "tensorShape": {}}}, "dtype": {"type": "DT_FLOAT"}}}, {"name": "FeatureExtractor/MobilenetV1/MobilenetV1/Conv2d_2_depthwise/weights_quant/FakeQuantWithMinMaxVars", "op": "Const", "attr": {"value": {"tensor": {"dtype": "DT_FLOAT", "tensorShape": {"dim": [{"size": "3"}, {"size": "3"}, {"size": "64"}, {"size": "1"}]}}}, "dtype": {"type": "DT_FLOAT"}}}, {"name": "FeatureExtractor/MobilenetV1/MobilenetV1/Conv2d_2_pointwise/weights_quant/FakeQuantWithMinMaxVars", "op": "Const", "attr": {"value": {"tensor": {"dtype": "DT_FLOAT", "tensorShape": {"dim": [{"size": "1"}, {"size": "1"}, {"size": "64"}, {"size": "128"}]}}}, "dtype": {"type": "DT_FLOAT"}}}, {"name": "BoxPredictor_0/ClassPredictor/weights_quant/FakeQuantWithMinMaxVars", "op": "Const", "attr": {"value": {"tensor": {"dtype": "DT_FLOAT", "tensorShape": {"dim": [{"size": "1"}, {"size": "1"}, {"size": "512"}, {"size": "15"}]}}}, "dtype": {"type": "DT_FLOAT"}}}, {"name": "FeatureExtractor/MobilenetV1/MobilenetV1/Conv2d_3_depthwise/weights_quant/FakeQuantWithMinMaxVars", "op": "Const", "attr": {"value": {"tensor": {"dtype": "DT_FLOAT", "tensorShape": {"dim": [{"size": "3"}, {"size": "3"}, {"size": "128"}, {"size": "1"}]}}}, "dtype": {"type": "DT_FLOAT"}}}, {"name": "BoxPredictor_0/ClassPredictor/act_quant/min", "op": "Const", "attr": {"value": {"tensor": {"dtype": "DT_FLOAT", "tensorShape": {}}}, "dtype": {"type": "DT_FLOAT"}}}, {"name": "BoxPredictor_0/ClassPredictor/act_quant/max", "op": "Const", "attr": {"value": {"tensor": {"dtype": "DT_FLOAT", "tensorShape": {}}}, "dtype": {"type": "DT_FLOAT"}}}, {"name": "FeatureExtractor/MobilenetV1/MobilenetV1/Conv2d_3_pointwise/weights_quant/FakeQuantWithMinMaxVars", "op": "Const", "attr": {"value": {"tensor": {"dtype": "DT_FLOAT", "tensorShape": {"dim": [{"size": "1"}, {"size": "1"}, {"size": "128"}, {"size": "128"}]}}}, "dtype": {"type": "DT_FLOAT"}}}, {"name": "FeatureExtractor/MobilenetV1/MobilenetV1/Conv2d_4_depthwise/weights_quant/FakeQuantWithMinMaxVars", "op": "Const", "attr": {"value": {"tensor": {"dtype": "DT_FLOAT", "tensorShape": {"dim": [{"size": "3"}, {"size": "3"}, {"size": "128"}, {"size": "1"}]}}}, "dtype": {"type": "DT_FLOAT"}}}, {"name": "BoxPredictor_1/BoxEncodingPredictor/weights_quant/FakeQuantWithMinMaxVars", "op": "Const", "attr": {"value": {"tensor": {"dtype": "DT_FLOAT", "tensorShape": {"dim": [{"size": "1"}, {"size": "1"}, {"size": "1024"}, {"size": "24"}]}}}, "dtype": {"type": "DT_FLOAT"}}}, {"name": "FeatureExtractor/MobilenetV1/MobilenetV1/Conv2d_4_pointwise/weights_quant/FakeQuantWithMinMaxVars", "op": "Const", "attr": {"value": {"tensor": {"dtype": "DT_FLOAT", "tensorShape": {"dim": [{"size": "1"}, {"size": "1"}, {"size": "128"}, {"size": "256"}]}}}, "dtype": {"type": "DT_FLOAT"}}}, {"name": "BoxPredictor_1/BoxEncodingPredictor/act_quant/min", "op": "Const", "attr": {"value": {"tensor": {"dtype": "DT_FLOAT", "tensorShape": {}}}, "dtype": {"type": "DT_FLOAT"}}}, {"name": "FeatureExtractor/MobilenetV1/MobilenetV1/Conv2d_5_depthwise/weights_quant/FakeQuantWithMinMaxVars", "op": "Const", "attr": {"value": {"tensor": {"dtype": "DT_FLOAT", "tensorShape": {"dim": [{"size": "3"}, {"size": "3"}, {"size": "256"}, {"size": "1"}]}}}, "dtype": {"type": "DT_FLOAT"}}}, {"name": "BoxPredictor_1/BoxEncodingPredictor/act_quant/max", "op": "Const", "attr": {"value": {"tensor": {"dtype": "DT_FLOAT", "tensorShape": {}}}, "dtype": {"type": "DT_FLOAT"}}}, {"name": "FeatureExtractor/MobilenetV1/MobilenetV1/Conv2d_5_pointwise/weights_quant/FakeQuantWithMinMaxVars", "op": "Const", "attr": {"value": {"tensor": {"dtype": "DT_FLOAT", "tensorShape": {"dim": [{"size": "1"}, {"size": "1"}, {"size": "256"}, {"size": "256"}]}}}, "dtype": {"type": "DT_FLOAT"}}}, {"name": "FeatureExtractor/MobilenetV1/MobilenetV1/Conv2d_6_depthwise/weights_quant/FakeQuantWithMinMaxVars", "op": "Const", "attr": {"value": {"tensor": {"dtype": "DT_FLOAT", "tensorShape": {"dim": [{"size": "3"}, {"size": "3"}, {"size": "256"}, {"size": "1"}]}}}, "dtype": {"type": "DT_FLOAT"}}}, {"name": "BoxPredictor_1/ClassPredictor/weights_quant/FakeQuantWithMinMaxVars", "op": "Const", "attr": {"dtype": {"type": "DT_FLOAT"}, "value": {"tensor": {"dtype": "DT_FLOAT", "tensorShape": {"dim": [{"size": "1"}, {"size": "1"}, {"size": "1024"}, {"size": "30"}]}}}}}, {"name": "BoxPredictor_1/ClassPredictor/act_quant/min", "op": "Const", "attr": {"dtype": {"type": "DT_FLOAT"}, "value": {"tensor": {"dtype": "DT_FLOAT", "tensorShape": {}}}}}, {"name": "FeatureExtractor/MobilenetV1/MobilenetV1/Conv2d_6_pointwise/weights_quant/FakeQuantWithMinMaxVars", "op": "Const", "attr": {"dtype": {"type": "DT_FLOAT"}, "value": {"tensor": {"dtype": "DT_FLOAT", "tensorShape": {"dim": [{"size": "1"}, {"size": "1"}, {"size": "256"}, {"size": "512"}]}}}}}, {"name": "BoxPredictor_1/ClassPredictor/act_quant/max", "op": "Const", "attr": {"dtype": {"type": "DT_FLOAT"}, "value": {"tensor": {"dtype": "DT_FLOAT", "tensorShape": {}}}}}, {"name": "FeatureExtractor/MobilenetV1/MobilenetV1/Conv2d_7_depthwise/weights_quant/FakeQuantWithMinMaxVars", "op": "Const", "attr": {"dtype": {"type": "DT_FLOAT"}, "value": {"tensor": {"dtype": "DT_FLOAT", "tensorShape": {"dim": [{"size": "3"}, {"size": "3"}, {"size": "512"}, {"size": "1"}]}}}}}, {"name": "FeatureExtractor/MobilenetV1/MobilenetV1/Conv2d_7_pointwise/weights_quant/FakeQuantWithMinMaxVars", "op": "Const", "attr": {"value": {"tensor": {"dtype": "DT_FLOAT", "tensorShape": {"dim": [{"size": "1"}, {"size": "1"}, {"size": "512"}, {"size": "512"}]}}}, "dtype": {"type": "DT_FLOAT"}}}, {"name": "BoxPredictor_2/BoxEncodingPredictor/weights_quant/FakeQuantWithMinMaxVars", "op": "Const", "attr": {"value": {"tensor": {"dtype": "DT_FLOAT", "tensorShape": {"dim": [{"size": "1"}, {"size": "1"}, {"size": "512"}, {"size": "24"}]}}}, "dtype": {"type": "DT_FLOAT"}}}, {"name": "FeatureExtractor/MobilenetV1/MobilenetV1/Conv2d_8_depthwise/weights_quant/FakeQuantWithMinMaxVars", "op": "Const", "attr": {"value": {"tensor": {"dtype": "DT_FLOAT", "tensorShape": {"dim": [{"size": "3"}, {"size": "3"}, {"size": "512"}, {"size": "1"}]}}}, "dtype": {"type": "DT_FLOAT"}}}, {"name": "BoxPredictor_2/BoxEncodingPredictor/act_quant/min", "op": "Const", "attr": {"value": {"tensor": {"dtype": "DT_FLOAT", "tensorShape": {}}}, "dtype": {"type": "DT_FLOAT"}}}, {"name": "BoxPredictor_2/BoxEncodingPredictor/act_quant/max", "op": "Const", "attr": {"dtype": {"type": "DT_FLOAT"}, "value": {"tensor": {"dtype": "DT_FLOAT", "tensorShape": {}}}}}, {"name": "FeatureExtractor/MobilenetV1/MobilenetV1/Conv2d_8_pointwise/weights_quant/FakeQuantWithMinMaxVars", "op": "Const", "attr": {"dtype": {"type": "DT_FLOAT"}, "value": {"tensor": {"dtype": "DT_FLOAT", "tensorShape": {"dim": [{"size": "1"}, {"size": "1"}, {"size": "512"}, {"size": "512"}]}}}}}, {"name": "FeatureExtractor/MobilenetV1/MobilenetV1/Conv2d_9_depthwise/weights_quant/FakeQuantWithMinMaxVars", "op": "Const", "attr": {"value": {"tensor": {"dtype": "DT_FLOAT", "tensorShape": {"dim": [{"size": "3"}, {"size": "3"}, {"size": "512"}, {"size": "1"}]}}}, "dtype": {"type": "DT_FLOAT"}}}, {"name": "BoxPredictor_2/ClassPredictor/weights_quant/FakeQuantWithMinMaxVars", "op": "Const", "attr": {"value": {"tensor": {"dtype": "DT_FLOAT", "tensorShape": {"dim": [{"size": "1"}, {"size": "1"}, {"size": "512"}, {"size": "30"}]}}}, "dtype": {"type": "DT_FLOAT"}}}, {"name": "FeatureExtractor/MobilenetV1/MobilenetV1/Conv2d_9_pointwise/weights_quant/FakeQuantWithMinMaxVars", "op": "Const", "attr": {"value": {"tensor": {"dtype": "DT_FLOAT", "tensorShape": {"dim": [{"size": "1"}, {"size": "1"}, {"size": "512"}, {"size": "512"}]}}}, "dtype": {"type": "DT_FLOAT"}}}, {"name": "BoxPredictor_2/ClassPredictor/act_quant/min", "op": "Const", "attr": {"dtype": {"type": "DT_FLOAT"}, "value": {"tensor": {"dtype": "DT_FLOAT", "tensorShape": {}}}}}, {"name": "BoxPredictor_2/ClassPredictor/act_quant/max", "op": "Const", "attr": {"value": {"tensor": {"dtype": "DT_FLOAT", "tensorShape": {}}}, "dtype": {"type": "DT_FLOAT"}}}, {"name": "FeatureExtractor/MobilenetV1/MobilenetV1/Conv2d_10_depthwise/weights_quant/FakeQuantWithMinMaxVars", "op": "Const", "attr": {"value": {"tensor": {"dtype": "DT_FLOAT", "tensorShape": {"dim": [{"size": "3"}, {"size": "3"}, {"size": "512"}, {"size": "1"}]}}}, "dtype": {"type": "DT_FLOAT"}}}, {"name": "FeatureExtractor/MobilenetV1/MobilenetV1/Conv2d_10_pointwise/weights_quant/FakeQuantWithMinMaxVars", "op": "Const", "attr": {"value": {"tensor": {"dtype": "DT_FLOAT", "tensorShape": {"dim": [{"size": "1"}, {"size": "1"}, {"size": "512"}, {"size": "512"}]}}}, "dtype": {"type": "DT_FLOAT"}}}, {"name": "BoxPredictor_3/BoxEncodingPredictor/weights_quant/FakeQuantWithMinMaxVars", "op": "Const", "attr": {"dtype": {"type": "DT_FLOAT"}, "value": {"tensor": {"dtype": "DT_FLOAT", "tensorShape": {"dim": [{"size": "1"}, {"size": "1"}, {"size": "256"}, {"size": "24"}]}}}}}, {"name": "FeatureExtractor/MobilenetV1/MobilenetV1/Conv2d_11_depthwise/weights_quant/FakeQuantWithMinMaxVars", "op": "Const", "attr": {"value": {"tensor": {"dtype": "DT_FLOAT", "tensorShape": {"dim": [{"size": "3"}, {"size": "3"}, {"size": "512"}, {"size": "1"}]}}}, "dtype": {"type": "DT_FLOAT"}}}, {"name": "ConstantFolding/Postprocessor/Decode/get_center_coordinates_and_sizes/truediv_recip", "op": "Const", "attr": {"value": {"tensor": {"dtype": "DT_FLOAT", "tensorShape": {}}}, "dtype": {"type": "DT_FLOAT"}}}, {"name": "ConstantFolding/Postprocessor/Decode/truediv_recip", "op": "Const", "attr": {"dtype": {"type": "DT_FLOAT"}, "value": {"tensor": {"dtype": "DT_FLOAT", "tensorShape": {}}}}}, {"name": "ConstantFolding/Postprocessor/Decode/truediv_2_recip", "op": "Const", "attr": {"value": {"tensor": {"dtype": "DT_FLOAT", "tensorShape": {}}}, "dtype": {"type": "DT_FLOAT"}}}, {"name": "Postprocessor/ExpandDims", "op": "Const", "attr": {"value": {"tensor": {"dtype": "DT_FLOAT", "tensorShape": {"dim": [{"size": "1"}, {"size": "1917"}, {"size": "4"}]}}}, "dtype": {"type": "DT_FLOAT"}}}, {"name": "Cast", "op": "Cast", "input": ["image_tensor"], "attr": {"SrcT": {"type": "DT_UINT8"}, "Truncate": {"b": false}, "DstT": {"type": "DT_FLOAT"}}}, {"name": "Preprocessor/map/while/Enter_1", "op": "Enter", "input": ["Preprocessor/map/TensorArrayUnstack/range/start"], "attr": {"T": {"type": "DT_INT32"}, "is_constant": {"b": false}, "parallel_iterations": {"i": "32"}, "frame_name": {"s": "UHJlcHJvY2Vzc29yL21hcC93aGlsZS93aGlsZV9jb250ZXh0"}}}, {"name": "Preprocessor/map/while/Enter", "op": "Enter", "input": ["Preprocessor/map/TensorArrayUnstack/range/start"], "attr": {"is_constant": {"b": false}, "parallel_iterations": {"i": "32"}, "frame_name": {"s": "UHJlcHJvY2Vzc29yL21hcC93aGlsZS93aGlsZV9jb250ZXh0"}, "T": {"type": "DT_INT32"}}}, {"name": "Preprocessor/mul", "op": "Mul", "input": ["Cast", "Preprocessor/mul/x"], "attr": {"T": {"type": "DT_FLOAT"}}}, {"name": "Preprocessor/map/while/Merge_1", "op": "Merge", "input": ["Preprocessor/map/while/Enter_1", "Preprocessor/map/while/NextIteration_1"], "attr": {"T": {"type": "DT_INT32"}, "N": {"i": "2"}}}, {"name": "Preprocessor/map/while/Merge", "op": "Merge", "input": ["Preprocessor/map/while/Enter", "Preprocessor/map/while/NextIteration"], "attr": {"T": {"type": "DT_INT32"}, "N": {"i": "2"}}}, {"name": "Preprocessor/sub", "op": "Sub", "input": ["Preprocessor/mul", "Preprocessor/sub/y"], "attr": {"T": {"type": "DT_FLOAT"}}}, {"name": "Preprocessor/map/Shape", "op": "Shape", "input": ["Preprocessor/sub"], "attr": {"T": {"type": "DT_FLOAT"}, "out_type": {"type": "DT_INT32"}}}, {"name": "Preprocessor/map/strided_slice", "op": "StridedSlice", "input": ["Preprocessor/map/Shape", "Preprocessor/map/strided_slice/stack", "Preprocessor/map/strided_slice/stack_1", "Preprocessor/map/strided_slice/stack_1"], "attr": {"Index": {"type": "DT_INT32"}, "T": {"type": "DT_INT32"}, "shrink_axis_mask": {"i": "1"}, "begin_mask": {"i": "0"}, "ellipsis_mask": {"i": "0"}, "new_axis_mask": {"i": "0"}, "end_mask": {"i": "0"}}}, {"name": "Preprocessor/map/TensorArray", "op": "TensorArrayV3", "input": ["Preprocessor/map/strided_slice"], "attr": {"tensor_array_name": {"s": ""}, "dtype": {"type": "DT_FLOAT"}, "element_shape": {"shape": {"unknownRank": true}}, "clear_after_read": {"b": true}, "dynamic_size": {"b": false}, "identical_element_shapes": {"b": true}}}, {"name": "Preprocessor/map/TensorArray_1", "op": "TensorArrayV3", "input": ["Preprocessor/map/strided_slice"], "attr": {"element_shape": {"shape": {"unknownRank": true}}, "clear_after_read": {"b": true}, "dynamic_size": {"b": false}, "identical_element_shapes": {"b": true}, "tensor_array_name": {"s": ""}, "dtype": {"type": "DT_FLOAT"}}}, {"name": "Preprocessor/map/while/Less/Enter", "op": "Enter", "input": ["Preprocessor/map/strided_slice"], "attr": {"T": {"type": "DT_INT32"}, "is_constant": {"b": true}, "parallel_iterations": {"i": "32"}, "frame_name": {"s": "UHJlcHJvY2Vzc29yL21hcC93aGlsZS93aGlsZV9jb250ZXh0"}}}, {"name": "Preprocessor/map/TensorArrayUnstack/range", "op": "Range", "input": ["Preprocessor/map/TensorArrayUnstack/range/start", "Preprocessor/map/strided_slice", "Preprocessor/map/TensorArrayUnstack/range/delta"], "attr": {"Tidx": {"type": "DT_INT32"}}}, {"name": "Preprocessor/map/while/TensorArrayReadV3/Enter", "op": "Enter", "input": ["Preprocessor/map/TensorArray"], "attr": {"T": {"type": "DT_RESOURCE"}, "is_constant": {"b": true}, "parallel_iterations": {"i": "32"}, "frame_name": {"s": "UHJlcHJvY2Vzc29yL21hcC93aGlsZS93aGlsZV9jb250ZXh0"}}}, {"name": "Preprocessor/map/while/TensorArrayWrite/TensorArrayWriteV3/Enter", "op": "Enter", "input": ["Preprocessor/map/TensorArray_1"], "attr": {"frame_name": {"s": "UHJlcHJvY2Vzc29yL21hcC93aGlsZS93aGlsZV9jb250ZXh0"}, "T": {"type": "DT_RESOURCE"}, "is_constant": {"b": true}, "parallel_iterations": {"i": "32"}}}, {"name": "Preprocessor/map/while/Enter_2", "op": "Enter", "input": ["Preprocessor/map/TensorArray_1:1"], "attr": {"parallel_iterations": {"i": "32"}, "frame_name": {"s": "UHJlcHJvY2Vzc29yL21hcC93aGlsZS93aGlsZV9jb250ZXh0"}, "T": {"type": "DT_FLOAT"}, "is_constant": {"b": false}}}, {"name": "Preprocessor/map/while/Less_1", "op": "Less", "input": ["Preprocessor/map/while/Merge_1", "Preprocessor/map/while/Less/Enter"], "attr": {"T": {"type": "DT_INT32"}}}, {"name": "Preprocessor/map/while/Less", "op": "Less", "input": ["Preprocessor/map/while/Merge", "Preprocessor/map/while/Less/Enter"], "attr": {"T": {"type": "DT_INT32"}}}, {"name": "Preprocessor/map/TensorArrayUnstack/TensorArrayScatter/TensorArrayScatterV3", "op": "TensorArrayScatterV3", "input": ["Preprocessor/map/TensorArray", "Preprocessor/map/TensorArrayUnstack/range", "Preprocessor/sub", "Preprocessor/map/TensorArray:1"], "attr": {"T": {"type": "DT_FLOAT"}}}, {"name": "Preprocessor/map/while/Merge_2", "op": "Merge", "input": ["Preprocessor/map/while/Enter_2", "Preprocessor/map/while/NextIteration_2"], "attr": {"N": {"i": "2"}, "T": {"type": "DT_FLOAT"}}}, {"name": "Preprocessor/map/while/LogicalAnd", "op": "LogicalAnd", "input": ["Preprocessor/map/while/Less", "Preprocessor/map/while/Less_1"]}, {"name": "Preprocessor/map/while/TensorArrayReadV3/Enter_1", "op": "Enter", "input": ["Preprocessor/map/TensorArrayUnstack/TensorArrayScatter/TensorArrayScatterV3"], "attr": {"T": {"type": "DT_FLOAT"}, "is_constant": {"b": true}, "parallel_iterations": {"i": "32"}, "frame_name": {"s": "UHJlcHJvY2Vzc29yL21hcC93aGlsZS93aGlsZV9jb250ZXh0"}}}, {"name": "Preprocessor/map/while/LoopCond", "op": "LoopCond", "input": ["Preprocessor/map/while/LogicalAnd"]}, {"name": "Preprocessor/map/while/Switch_1", "op": "Switch", "input": ["Preprocessor/map/while/Merge_1", "Preprocessor/map/while/LoopCond"], "attr": {"T": {"type": "DT_INT32"}}}, {"name": "Preprocessor/map/while/Switch_2", "op": "Switch", "input": ["Preprocessor/map/while/Merge_2", "Preprocessor/map/while/LoopCond"], "attr": {"T": {"type": "DT_FLOAT"}}}, {"name": "Preprocessor/map/while/Switch", "op": "Switch", "input": ["Preprocessor/map/while/Merge", "Preprocessor/map/while/LoopCond"], "attr": {"T": {"type": "DT_INT32"}}}, {"name": "Preprocessor/map/while/TensorArrayReadV3", "op": "TensorArrayReadV3", "input": ["Preprocessor/map/while/TensorArrayReadV3/Enter", "Preprocessor/map/while/Switch_1:1", "Preprocessor/map/while/TensorArrayReadV3/Enter_1"], "attr": {"dtype": {"type": "DT_FLOAT"}}}, {"name": "Preprocessor/map/while/Exit_2", "op": "Exit", "input": ["Preprocessor/map/while/Switch_2"], "attr": {"T": {"type": "DT_FLOAT"}}}, {"name": "Preprocessor/map/while/Identity", "op": "Identity", "input": ["Preprocessor/map/while/Switch:1"], "attr": {"T": {"type": "DT_INT32"}}}, {"name": "Preprocessor/map/TensorArrayStack/TensorArraySizeV3", "op": "TensorArraySizeV3", "input": ["Preprocessor/map/TensorArray_1", "Preprocessor/map/while/Exit_2"]}, {"name": "Preprocessor/map/while/add/y", "op": "Const", "input": ["^Preprocessor/map/while/Identity"], "attr": {"dtype": {"type": "DT_INT32"}, "value": {"tensor": {"dtype": "DT_INT32", "tensorShape": {}}}}}, {"name": "Preprocessor/map/while/ResizeImage/stack", "op": "Const", "input": ["^Preprocessor/map/while/Identity"], "attr": {"value": {"tensor": {"dtype": "DT_INT32", "tensorShape": {"dim": [{"size": "2"}]}}}, "dtype": {"type": "DT_INT32"}}}, {"name": "Preprocessor/map/while/ResizeImage/resize/ExpandDims/dim", "op": "Const", "input": ["^Preprocessor/map/while/Identity"], "attr": {"value": {"tensor": {"dtype": "DT_INT32", "tensorShape": {}}}, "dtype": {"type": "DT_INT32"}}}, {"name": "Preprocessor/map/TensorArrayStack/range", "op": "Range", "input": ["Preprocessor/map/TensorArrayUnstack/range/start", "Preprocessor/map/TensorArrayStack/TensorArraySizeV3", "Preprocessor/map/TensorArrayUnstack/range/delta"], "attr": {"Tidx": {"type": "DT_INT32"}}}, {"name": "Preprocessor/map/while/add", "op": "AddV2", "input": ["Preprocessor/map/while/Identity", "Preprocessor/map/while/add/y"], "attr": {"T": {"type": "DT_INT32"}}}, {"name": "Preprocessor/map/while/add_1", "op": "AddV2", "input": ["Preprocessor/map/while/Switch_1:1", "Preprocessor/map/while/add/y"], "attr": {"T": {"type": "DT_INT32"}}}, {"name": "Preprocessor/map/while/ResizeImage/resize/ExpandDims", "op": "ExpandDims", "input": ["Preprocessor/map/while/TensorArrayReadV3", "Preprocessor/map/while/ResizeImage/resize/ExpandDims/dim"], "attr": {"Tdim": {"type": "DT_INT32"}, "T": {"type": "DT_FLOAT"}}}, {"name": "Preprocessor/map/TensorArrayStack/TensorArrayGatherV3", "op": "TensorArrayGatherV3", "input": ["Preprocessor/map/TensorArray_1", "Preprocessor/map/TensorArrayStack/range", "Preprocessor/map/while/Exit_2"], "attr": {"dtype": {"type": "DT_FLOAT"}, "element_shape": {"shape": {"dim": [{"size": "300"}, {"size": "300"}, {"size": "3"}]}}}}, {"name": "Preprocessor/map/while/NextIteration", "op": "NextIteration", "input": ["Preprocessor/map/while/add"], "attr": {"T": {"type": "DT_INT32"}}}, {"name": "Preprocessor/map/while/NextIteration_1", "op": "NextIteration", "input": ["Preprocessor/map/while/add_1"], "attr": {"T": {"type": "DT_INT32"}}}, {"name": "Preprocessor/map/while/ResizeImage/resize/ResizeBilinear", "op": "ResizeBilinear", "input": ["Preprocessor/map/while/ResizeImage/resize/ExpandDims", "Preprocessor/map/while/ResizeImage/stack"], "attr": {"align_corners": {"b": false}, "half_pixel_centers": {"b": false}, "T": {"type": "DT_FLOAT"}}}, {"name": "FeatureExtractor/MobilenetV1/MobilenetV1/Conv2d_0/Conv2D_Fold", "op": "Conv2D", "input": ["Preprocessor/map/TensorArrayStack/TensorArrayGatherV3", "FeatureExtractor/MobilenetV1/MobilenetV1/Conv2d_0/weights_quant/FakeQuantWithMinMaxVars"], "device": "/device:CPU:0", "attr": {"dilations": {"list": {"i": ["1", "1", "1", "1"]}}, "T": {"type": "DT_FLOAT"}, "strides": {"list": {"i": ["1", "2", "2", "1"]}}, "data_format": {"s": "TkhXQw=="}, "use_cudnn_on_gpu": {"b": true}, "explicit_paddings": {"list": {}}, "padding": {"s": "U0FNRQ=="}}}, {"name": "Preprocessor/map/while/ResizeImage/resize/Squeeze", "op": "Squeeze", "input": ["Preprocessor/map/while/ResizeImage/resize/ResizeBilinear"], "attr": {"squeeze_dims": {"list": {"i": ["0"]}}, "T": {"type": "DT_FLOAT"}}}, {"name": "FeatureExtractor/MobilenetV1/MobilenetV1/Conv2d_0/add_fold", "op": "Add", "input": ["FeatureExtractor/MobilenetV1/MobilenetV1/Conv2d_0/BatchNorm_Fold/bias", "FeatureExtractor/MobilenetV1/MobilenetV1/Conv2d_0/Conv2D_Fold"], "attr": {"T": {"type": "DT_FLOAT"}}}, {"name": "Preprocessor/map/while/TensorArrayWrite/TensorArrayWriteV3", "op": "TensorArrayWriteV3", "input": ["Preprocessor/map/while/TensorArrayWrite/TensorArrayWriteV3/Enter", "Preprocessor/map/while/Switch_1:1", "Preprocessor/map/while/ResizeImage/resize/Squeeze", "Preprocessor/map/while/Switch_2:1"], "attr": {"T": {"type": "DT_FLOAT"}}}, {"name": "FeatureExtractor/MobilenetV1/MobilenetV1/Conv2d_0/Relu6", "op": "Relu6", "input": ["FeatureExtractor/MobilenetV1/MobilenetV1/Conv2d_0/add_fold"], "attr": {"T": {"type": "DT_FLOAT"}}}, {"name": "Preprocessor/map/while/NextIteration_2", "op": "NextIteration", "input": ["Preprocessor/map/while/TensorArrayWrite/TensorArrayWriteV3"], "attr": {"T": {"type": "DT_FLOAT"}}}, {"name": "FeatureExtractor/MobilenetV1/MobilenetV1/Conv2d_0/act_quant/FakeQuantWithMinMaxVars", "op": "FakeQuantWithMinMaxVars", "input": ["FeatureExtractor/MobilenetV1/MobilenetV1/Conv2d_0/Relu6", "FeatureExtractor/MobilenetV1/MobilenetV1/Conv2d_11_pointwise/act_quant/min", "FeatureExtractor/MobilenetV1/MobilenetV1/Conv2d_11_pointwise/act_quant/max"], "attr": {"narrow_range": {"b": false}, "num_bits": {"i": "8"}}}, {"name": "FeatureExtractor/MobilenetV1/MobilenetV1/Conv2d_1_depthwise/depthwise_Fold", "op": "DepthwiseConv2dNative", "input": ["FeatureExtractor/MobilenetV1/MobilenetV1/Conv2d_0/act_quant/FakeQuantWithMinMaxVars", "FeatureExtractor/MobilenetV1/MobilenetV1/Conv2d_1_depthwise/weights_quant/FakeQuantWithMinMaxVars"], "attr": {"dilations": {"list": {"i": ["1", "1", "1", "1"]}}, "padding": {"s": "U0FNRQ=="}, "T": {"type": "DT_FLOAT"}, "data_format": {"s": "TkhXQw=="}, "strides": {"list": {"i": ["1", "1", "1", "1"]}}}}, {"name": "FeatureExtractor/MobilenetV1/MobilenetV1/Conv2d_1_depthwise/add_fold", "op": "Add", "input": ["FeatureExtractor/MobilenetV1/MobilenetV1/Conv2d_1_depthwise/BatchNorm_Fold/bias", "FeatureExtractor/MobilenetV1/MobilenetV1/Conv2d_1_depthwise/depthwise_Fold"], "attr": {"T": {"type": "DT_FLOAT"}}}, {"name": "FeatureExtractor/MobilenetV1/MobilenetV1/Conv2d_1_depthwise/Relu6", "op": "Relu6", "input": ["FeatureExtractor/MobilenetV1/MobilenetV1/Conv2d_1_depthwise/add_fold"], "attr": {"T": {"type": "DT_FLOAT"}}}, {"name": "FeatureExtractor/MobilenetV1/MobilenetV1/Conv2d_1_depthwise/act_quant/FakeQuantWithMinMaxVars", "op": "FakeQuantWithMinMaxVars", "input": ["FeatureExtractor/MobilenetV1/MobilenetV1/Conv2d_1_depthwise/Relu6", "FeatureExtractor/MobilenetV1/MobilenetV1/Conv2d_11_pointwise/act_quant/min", "FeatureExtractor/MobilenetV1/MobilenetV1/Conv2d_11_pointwise/act_quant/max"], "attr": {"narrow_range": {"b": false}, "num_bits": {"i": "8"}}}, {"name": "FeatureExtractor/MobilenetV1/MobilenetV1/Conv2d_1_pointwise/Conv2D_Fold", "op": "Conv2D", "input": ["FeatureExtractor/MobilenetV1/MobilenetV1/Conv2d_1_depthwise/act_quant/FakeQuantWithMinMaxVars", "FeatureExtractor/MobilenetV1/MobilenetV1/Conv2d_1_pointwise/weights_quant/FakeQuantWithMinMaxVars"], "device": "/device:CPU:0", "attr": {"strides": {"list": {"i": ["1", "1", "1", "1"]}}, "data_format": {"s": "TkhXQw=="}, "explicit_paddings": {"list": {}}, "use_cudnn_on_gpu": {"b": true}, "padding": {"s": "U0FNRQ=="}, "dilations": {"list": {"i": ["1", "1", "1", "1"]}}, "T": {"type": "DT_FLOAT"}}}, {"name": "FeatureExtractor/MobilenetV1/MobilenetV1/Conv2d_1_pointwise/add_fold", "op": "Add", "input": ["FeatureExtractor/MobilenetV1/MobilenetV1/Conv2d_1_pointwise/BatchNorm_Fold/bias", "FeatureExtractor/MobilenetV1/MobilenetV1/Conv2d_1_pointwise/Conv2D_Fold"], "attr": {"T": {"type": "DT_FLOAT"}}}, {"name": "FeatureExtractor/MobilenetV1/MobilenetV1/Conv2d_1_pointwise/Relu6", "op": "Relu6", "input": ["FeatureExtractor/MobilenetV1/MobilenetV1/Conv2d_1_pointwise/add_fold"], "attr": {"T": {"type": "DT_FLOAT"}}}, {"name": "FeatureExtractor/MobilenetV1/MobilenetV1/Conv2d_1_pointwise/act_quant/FakeQuantWithMinMaxVars", "op": "FakeQuantWithMinMaxVars", "input": ["FeatureExtractor/MobilenetV1/MobilenetV1/Conv2d_1_pointwise/Relu6", "FeatureExtractor/MobilenetV1/MobilenetV1/Conv2d_11_pointwise/act_quant/min", "FeatureExtractor/MobilenetV1/MobilenetV1/Conv2d_1_pointwise/act_quant/max"], "attr": {"narrow_range": {"b": false}, "num_bits": {"i": "8"}}}, {"name": "FeatureExtractor/MobilenetV1/MobilenetV1/Conv2d_2_depthwise/depthwise_Fold", "op": "DepthwiseConv2dNative", "input": ["FeatureExtractor/MobilenetV1/MobilenetV1/Conv2d_1_pointwise/act_quant/FakeQuantWithMinMaxVars", "FeatureExtractor/MobilenetV1/MobilenetV1/Conv2d_2_depthwise/weights_quant/FakeQuantWithMinMaxVars"], "attr": {"dilations": {"list": {"i": ["1", "1", "1", "1"]}}, "padding": {"s": "U0FNRQ=="}, "T": {"type": "DT_FLOAT"}, "data_format": {"s": "TkhXQw=="}, "strides": {"list": {"i": ["1", "2", "2", "1"]}}}}, {"name": "FeatureExtractor/MobilenetV1/MobilenetV1/Conv2d_2_depthwise/add_fold", "op": "Add", "input": ["FeatureExtractor/MobilenetV1/MobilenetV1/Conv2d_2_depthwise/BatchNorm_Fold/bias", "FeatureExtractor/MobilenetV1/MobilenetV1/Conv2d_2_depthwise/depthwise_Fold"], "attr": {"T": {"type": "DT_FLOAT"}}}, {"name": "FeatureExtractor/MobilenetV1/MobilenetV1/Conv2d_2_depthwise/Relu6", "op": "Relu6", "input": ["FeatureExtractor/MobilenetV1/MobilenetV1/Conv2d_2_depthwise/add_fold"], "attr": {"T": {"type": "DT_FLOAT"}}}, {"name": "FeatureExtractor/MobilenetV1/MobilenetV1/Conv2d_2_depthwise/act_quant/FakeQuantWithMinMaxVars", "op": "FakeQuantWithMinMaxVars", "input": ["FeatureExtractor/MobilenetV1/MobilenetV1/Conv2d_2_depthwise/Relu6", "FeatureExtractor/MobilenetV1/MobilenetV1/Conv2d_11_pointwise/act_quant/min", "FeatureExtractor/MobilenetV1/MobilenetV1/Conv2d_11_pointwise/act_quant/max"], "attr": {"narrow_range": {"b": false}, "num_bits": {"i": "8"}}}, {"name": "FeatureExtractor/MobilenetV1/MobilenetV1/Conv2d_2_pointwise/Conv2D_Fold", "op": "Conv2D", "input": ["FeatureExtractor/MobilenetV1/MobilenetV1/Conv2d_2_depthwise/act_quant/FakeQuantWithMinMaxVars", "FeatureExtractor/MobilenetV1/MobilenetV1/Conv2d_2_pointwise/weights_quant/FakeQuantWithMinMaxVars"], "device": "/device:CPU:0", "attr": {"dilations": {"list": {"i": ["1", "1", "1", "1"]}}, "T": {"type": "DT_FLOAT"}, "data_format": {"s": "TkhXQw=="}, "strides": {"list": {"i": ["1", "1", "1", "1"]}}, "use_cudnn_on_gpu": {"b": true}, "explicit_paddings": {"list": {}}, "padding": {"s": "U0FNRQ=="}}}, {"name": "FeatureExtractor/MobilenetV1/MobilenetV1/Conv2d_2_pointwise/add_fold", "op": "Add", "input": ["FeatureExtractor/MobilenetV1/MobilenetV1/Conv2d_2_pointwise/BatchNorm_Fold/bias", "FeatureExtractor/MobilenetV1/MobilenetV1/Conv2d_2_pointwise/Conv2D_Fold"], "attr": {"T": {"type": "DT_FLOAT"}}}, {"name": "FeatureExtractor/MobilenetV1/MobilenetV1/Conv2d_2_pointwise/Relu6", "op": "Relu6", "input": ["FeatureExtractor/MobilenetV1/MobilenetV1/Conv2d_2_pointwise/add_fold"], "attr": {"T": {"type": "DT_FLOAT"}}}, {"name": "FeatureExtractor/MobilenetV1/MobilenetV1/Conv2d_2_pointwise/act_quant/FakeQuantWithMinMaxVars", "op": "FakeQuantWithMinMaxVars", "input": ["FeatureExtractor/MobilenetV1/MobilenetV1/Conv2d_2_pointwise/Relu6", "FeatureExtractor/MobilenetV1/MobilenetV1/Conv2d_11_pointwise/act_quant/min", "FeatureExtractor/MobilenetV1/MobilenetV1/Conv2d_11_pointwise/act_quant/max"], "attr": {"narrow_range": {"b": false}, "num_bits": {"i": "8"}}}, {"name": "FeatureExtractor/MobilenetV1/MobilenetV1/Conv2d_3_depthwise/depthwise_Fold", "op": "DepthwiseConv2dNative", "input": ["FeatureExtractor/MobilenetV1/MobilenetV1/Conv2d_2_pointwise/act_quant/FakeQuantWithMinMaxVars", "FeatureExtractor/MobilenetV1/MobilenetV1/Conv2d_3_depthwise/weights_quant/FakeQuantWithMinMaxVars"], "attr": {"data_format": {"s": "TkhXQw=="}, "strides": {"list": {"i": ["1", "1", "1", "1"]}}, "dilations": {"list": {"i": ["1", "1", "1", "1"]}}, "padding": {"s": "U0FNRQ=="}, "T": {"type": "DT_FLOAT"}}}, {"name": "FeatureExtractor/MobilenetV1/MobilenetV1/Conv2d_3_depthwise/add_fold", "op": "Add", "input": ["FeatureExtractor/MobilenetV1/MobilenetV1/Conv2d_3_depthwise/BatchNorm_Fold/bias", "FeatureExtractor/MobilenetV1/MobilenetV1/Conv2d_3_depthwise/depthwise_Fold"], "attr": {"T": {"type": "DT_FLOAT"}}}, {"name": "FeatureExtractor/MobilenetV1/MobilenetV1/Conv2d_3_depthwise/Relu6", "op": "Relu6", "input": ["FeatureExtractor/MobilenetV1/MobilenetV1/Conv2d_3_depthwise/add_fold"], "attr": {"T": {"type": "DT_FLOAT"}}}, {"name": "FeatureExtractor/MobilenetV1/MobilenetV1/Conv2d_3_depthwise/act_quant/FakeQuantWithMinMaxVars", "op": "FakeQuantWithMinMaxVars", "input": ["FeatureExtractor/MobilenetV1/MobilenetV1/Conv2d_3_depthwise/Relu6", "FeatureExtractor/MobilenetV1/MobilenetV1/Conv2d_11_pointwise/act_quant/min", "FeatureExtractor/MobilenetV1/MobilenetV1/Conv2d_11_pointwise/act_quant/max"], "attr": {"narrow_range": {"b": false}, "num_bits": {"i": "8"}}}, {"name": "FeatureExtractor/MobilenetV1/MobilenetV1/Conv2d_3_pointwise/Conv2D_Fold", "op": "Conv2D", "input": ["FeatureExtractor/MobilenetV1/MobilenetV1/Conv2d_3_depthwise/act_quant/FakeQuantWithMinMaxVars", "FeatureExtractor/MobilenetV1/MobilenetV1/Conv2d_3_pointwise/weights_quant/FakeQuantWithMinMaxVars"], "device": "/device:CPU:0", "attr": {"explicit_paddings": {"list": {}}, "use_cudnn_on_gpu": {"b": true}, "padding": {"s": "U0FNRQ=="}, "dilations": {"list": {"i": ["1", "1", "1", "1"]}}, "T": {"type": "DT_FLOAT"}, "strides": {"list": {"i": ["1", "1", "1", "1"]}}, "data_format": {"s": "TkhXQw=="}}}, {"name": "FeatureExtractor/MobilenetV1/MobilenetV1/Conv2d_3_pointwise/add_fold", "op": "Add", "input": ["FeatureExtractor/MobilenetV1/MobilenetV1/Conv2d_3_pointwise/BatchNorm_Fold/bias", "FeatureExtractor/MobilenetV1/MobilenetV1/Conv2d_3_pointwise/Conv2D_Fold"], "attr": {"T": {"type": "DT_FLOAT"}}}, {"name": "FeatureExtractor/MobilenetV1/MobilenetV1/Conv2d_3_pointwise/Relu6", "op": "Relu6", "input": ["FeatureExtractor/MobilenetV1/MobilenetV1/Conv2d_3_pointwise/add_fold"], "attr": {"T": {"type": "DT_FLOAT"}}}, {"name": "FeatureExtractor/MobilenetV1/MobilenetV1/Conv2d_3_pointwise/act_quant/FakeQuantWithMinMaxVars", "op": "FakeQuantWithMinMaxVars", "input": ["FeatureExtractor/MobilenetV1/MobilenetV1/Conv2d_3_pointwise/Relu6", "FeatureExtractor/MobilenetV1/MobilenetV1/Conv2d_11_pointwise/act_quant/min", "FeatureExtractor/MobilenetV1/MobilenetV1/Conv2d_11_pointwise/act_quant/max"], "attr": {"narrow_range": {"b": false}, "num_bits": {"i": "8"}}}, {"name": "FeatureExtractor/MobilenetV1/MobilenetV1/Conv2d_4_depthwise/depthwise_Fold", "op": "DepthwiseConv2dNative", "input": ["FeatureExtractor/MobilenetV1/MobilenetV1/Conv2d_3_pointwise/act_quant/FakeQuantWithMinMaxVars", "FeatureExtractor/MobilenetV1/MobilenetV1/Conv2d_4_depthwise/weights_quant/FakeQuantWithMinMaxVars"], "attr": {"data_format": {"s": "TkhXQw=="}, "strides": {"list": {"i": ["1", "2", "2", "1"]}}, "dilations": {"list": {"i": ["1", "1", "1", "1"]}}, "padding": {"s": "U0FNRQ=="}, "T": {"type": "DT_FLOAT"}}}, {"name": "FeatureExtractor/MobilenetV1/MobilenetV1/Conv2d_4_depthwise/add_fold", "op": "Add", "input": ["FeatureExtractor/MobilenetV1/MobilenetV1/Conv2d_4_depthwise/BatchNorm_Fold/bias", "FeatureExtractor/MobilenetV1/MobilenetV1/Conv2d_4_depthwise/depthwise_Fold"], "attr": {"T": {"type": "DT_FLOAT"}}}, {"name": "FeatureExtractor/MobilenetV1/MobilenetV1/Conv2d_4_depthwise/Relu6", "op": "Relu6", "input": ["FeatureExtractor/MobilenetV1/MobilenetV1/Conv2d_4_depthwise/add_fold"], "attr": {"T": {"type": "DT_FLOAT"}}}, {"name": "FeatureExtractor/MobilenetV1/MobilenetV1/Conv2d_4_depthwise/act_quant/FakeQuantWithMinMaxVars", "op": "FakeQuantWithMinMaxVars", "input": ["FeatureExtractor/MobilenetV1/MobilenetV1/Conv2d_4_depthwise/Relu6", "FeatureExtractor/MobilenetV1/MobilenetV1/Conv2d_11_pointwise/act_quant/min", "FeatureExtractor/MobilenetV1/MobilenetV1/Conv2d_11_pointwise/act_quant/max"], "attr": {"narrow_range": {"b": false}, "num_bits": {"i": "8"}}}, {"name": "FeatureExtractor/MobilenetV1/MobilenetV1/Conv2d_4_pointwise/Conv2D_Fold", "op": "Conv2D", "input": ["FeatureExtractor/MobilenetV1/MobilenetV1/Conv2d_4_depthwise/act_quant/FakeQuantWithMinMaxVars", "FeatureExtractor/MobilenetV1/MobilenetV1/Conv2d_4_pointwise/weights_quant/FakeQuantWithMinMaxVars"], "device": "/device:CPU:0", "attr": {"padding": {"s": "U0FNRQ=="}, "dilations": {"list": {"i": ["1", "1", "1", "1"]}}, "T": {"type": "DT_FLOAT"}, "data_format": {"s": "TkhXQw=="}, "strides": {"list": {"i": ["1", "1", "1", "1"]}}, "explicit_paddings": {"list": {}}, "use_cudnn_on_gpu": {"b": true}}}, {"name": "FeatureExtractor/MobilenetV1/MobilenetV1/Conv2d_4_pointwise/add_fold", "op": "Add", "input": ["FeatureExtractor/MobilenetV1/MobilenetV1/Conv2d_4_pointwise/BatchNorm_Fold/bias", "FeatureExtractor/MobilenetV1/MobilenetV1/Conv2d_4_pointwise/Conv2D_Fold"], "attr": {"T": {"type": "DT_FLOAT"}}}, {"name": "FeatureExtractor/MobilenetV1/MobilenetV1/Conv2d_4_pointwise/Relu6", "op": "Relu6", "input": ["FeatureExtractor/MobilenetV1/MobilenetV1/Conv2d_4_pointwise/add_fold"], "attr": {"T": {"type": "DT_FLOAT"}}}, {"name": "FeatureExtractor/MobilenetV1/MobilenetV1/Conv2d_4_pointwise/act_quant/FakeQuantWithMinMaxVars", "op": "FakeQuantWithMinMaxVars", "input": ["FeatureExtractor/MobilenetV1/MobilenetV1/Conv2d_4_pointwise/Relu6", "FeatureExtractor/MobilenetV1/MobilenetV1/Conv2d_11_pointwise/act_quant/min", "FeatureExtractor/MobilenetV1/MobilenetV1/Conv2d_11_pointwise/act_quant/max"], "attr": {"narrow_range": {"b": false}, "num_bits": {"i": "8"}}}, {"name": "FeatureExtractor/MobilenetV1/MobilenetV1/Conv2d_5_depthwise/depthwise_Fold", "op": "DepthwiseConv2dNative", "input": ["FeatureExtractor/MobilenetV1/MobilenetV1/Conv2d_4_pointwise/act_quant/FakeQuantWithMinMaxVars", "FeatureExtractor/MobilenetV1/MobilenetV1/Conv2d_5_depthwise/weights_quant/FakeQuantWithMinMaxVars"], "attr": {"data_format": {"s": "TkhXQw=="}, "strides": {"list": {"i": ["1", "1", "1", "1"]}}, "dilations": {"list": {"i": ["1", "1", "1", "1"]}}, "padding": {"s": "U0FNRQ=="}, "T": {"type": "DT_FLOAT"}}}, {"name": "FeatureExtractor/MobilenetV1/MobilenetV1/Conv2d_5_depthwise/add_fold", "op": "Add", "input": ["FeatureExtractor/MobilenetV1/MobilenetV1/Conv2d_5_depthwise/BatchNorm_Fold/bias", "FeatureExtractor/MobilenetV1/MobilenetV1/Conv2d_5_depthwise/depthwise_Fold"], "attr": {"T": {"type": "DT_FLOAT"}}}, {"name": "FeatureExtractor/MobilenetV1/MobilenetV1/Conv2d_5_depthwise/Relu6", "op": "Relu6", "input": ["FeatureExtractor/MobilenetV1/MobilenetV1/Conv2d_5_depthwise/add_fold"], "attr": {"T": {"type": "DT_FLOAT"}}}, {"name": "FeatureExtractor/MobilenetV1/MobilenetV1/Conv2d_5_depthwise/act_quant/FakeQuantWithMinMaxVars", "op": "FakeQuantWithMinMaxVars", "input": ["FeatureExtractor/MobilenetV1/MobilenetV1/Conv2d_5_depthwise/Relu6", "FeatureExtractor/MobilenetV1/MobilenetV1/Conv2d_11_pointwise/act_quant/min", "FeatureExtractor/MobilenetV1/MobilenetV1/Conv2d_11_pointwise/act_quant/max"], "attr": {"narrow_range": {"b": false}, "num_bits": {"i": "8"}}}, {"name": "FeatureExtractor/MobilenetV1/MobilenetV1/Conv2d_5_pointwise/Conv2D_Fold", "op": "Conv2D", "input": ["FeatureExtractor/MobilenetV1/MobilenetV1/Conv2d_5_depthwise/act_quant/FakeQuantWithMinMaxVars", "FeatureExtractor/MobilenetV1/MobilenetV1/Conv2d_5_pointwise/weights_quant/FakeQuantWithMinMaxVars"], "device": "/device:CPU:0", "attr": {"dilations": {"list": {"i": ["1", "1", "1", "1"]}}, "T": {"type": "DT_FLOAT"}, "strides": {"list": {"i": ["1", "1", "1", "1"]}}, "data_format": {"s": "TkhXQw=="}, "explicit_paddings": {"list": {}}, "use_cudnn_on_gpu": {"b": true}, "padding": {"s": "U0FNRQ=="}}}, {"name": "FeatureExtractor/MobilenetV1/MobilenetV1/Conv2d_5_pointwise/add_fold", "op": "Add", "input": ["FeatureExtractor/MobilenetV1/MobilenetV1/Conv2d_5_pointwise/BatchNorm_Fold/bias", "FeatureExtractor/MobilenetV1/MobilenetV1/Conv2d_5_pointwise/Conv2D_Fold"], "attr": {"T": {"type": "DT_FLOAT"}}}, {"name": "FeatureExtractor/MobilenetV1/MobilenetV1/Conv2d_5_pointwise/Relu6", "op": "Relu6", "input": ["FeatureExtractor/MobilenetV1/MobilenetV1/Conv2d_5_pointwise/add_fold"], "attr": {"T": {"type": "DT_FLOAT"}}}, {"name": "FeatureExtractor/MobilenetV1/MobilenetV1/Conv2d_5_pointwise/act_quant/FakeQuantWithMinMaxVars", "op": "FakeQuantWithMinMaxVars", "input": ["FeatureExtractor/MobilenetV1/MobilenetV1/Conv2d_5_pointwise/Relu6", "FeatureExtractor/MobilenetV1/MobilenetV1/Conv2d_11_pointwise/act_quant/min", "FeatureExtractor/MobilenetV1/MobilenetV1/Conv2d_11_pointwise/act_quant/max"], "attr": {"narrow_range": {"b": false}, "num_bits": {"i": "8"}}}, {"name": "FeatureExtractor/MobilenetV1/MobilenetV1/Conv2d_6_depthwise/depthwise_Fold", "op": "DepthwiseConv2dNative", "input": ["FeatureExtractor/MobilenetV1/MobilenetV1/Conv2d_5_pointwise/act_quant/FakeQuantWithMinMaxVars", "FeatureExtractor/MobilenetV1/MobilenetV1/Conv2d_6_depthwise/weights_quant/FakeQuantWithMinMaxVars"], "attr": {"dilations": {"list": {"i": ["1", "1", "1", "1"]}}, "padding": {"s": "U0FNRQ=="}, "T": {"type": "DT_FLOAT"}, "data_format": {"s": "TkhXQw=="}, "strides": {"list": {"i": ["1", "2", "2", "1"]}}}}, {"name": "FeatureExtractor/MobilenetV1/MobilenetV1/Conv2d_6_depthwise/add_fold", "op": "Add", "input": ["FeatureExtractor/MobilenetV1/MobilenetV1/Conv2d_6_depthwise/BatchNorm_Fold/bias", "FeatureExtractor/MobilenetV1/MobilenetV1/Conv2d_6_depthwise/depthwise_Fold"], "attr": {"T": {"type": "DT_FLOAT"}}}, {"name": "FeatureExtractor/MobilenetV1/MobilenetV1/Conv2d_6_depthwise/Relu6", "op": "Relu6", "input": ["FeatureExtractor/MobilenetV1/MobilenetV1/Conv2d_6_depthwise/add_fold"], "attr": {"T": {"type": "DT_FLOAT"}}}, {"name": "FeatureExtractor/MobilenetV1/MobilenetV1/Conv2d_6_depthwise/act_quant/FakeQuantWithMinMaxVars", "op": "FakeQuantWithMinMaxVars", "input": ["FeatureExtractor/MobilenetV1/MobilenetV1/Conv2d_6_depthwise/Relu6", "FeatureExtractor/MobilenetV1/MobilenetV1/Conv2d_11_pointwise/act_quant/min", "FeatureExtractor/MobilenetV1/MobilenetV1/Conv2d_11_pointwise/act_quant/max"], "attr": {"narrow_range": {"b": false}, "num_bits": {"i": "8"}}}, {"name": "FeatureExtractor/MobilenetV1/MobilenetV1/Conv2d_6_pointwise/Conv2D_Fold", "op": "Conv2D", "input": ["FeatureExtractor/MobilenetV1/MobilenetV1/Conv2d_6_depthwise/act_quant/FakeQuantWithMinMaxVars", "FeatureExtractor/MobilenetV1/MobilenetV1/Conv2d_6_pointwise/weights_quant/FakeQuantWithMinMaxVars"], "device": "/device:CPU:0", "attr": {"dilations": {"list": {"i": ["1", "1", "1", "1"]}}, "T": {"type": "DT_FLOAT"}, "strides": {"list": {"i": ["1", "1", "1", "1"]}}, "data_format": {"s": "TkhXQw=="}, "use_cudnn_on_gpu": {"b": true}, "explicit_paddings": {"list": {}}, "padding": {"s": "U0FNRQ=="}}}, {"name": "FeatureExtractor/MobilenetV1/MobilenetV1/Conv2d_6_pointwise/add_fold", "op": "Add", "input": ["FeatureExtractor/MobilenetV1/MobilenetV1/Conv2d_6_pointwise/BatchNorm_Fold/bias", "FeatureExtractor/MobilenetV1/MobilenetV1/Conv2d_6_pointwise/Conv2D_Fold"], "attr": {"T": {"type": "DT_FLOAT"}}}, {"name": "FeatureExtractor/MobilenetV1/MobilenetV1/Conv2d_6_pointwise/Relu6", "op": "Relu6", "input": ["FeatureExtractor/MobilenetV1/MobilenetV1/Conv2d_6_pointwise/add_fold"], "attr": {"T": {"type": "DT_FLOAT"}}}, {"name": "FeatureExtractor/MobilenetV1/MobilenetV1/Conv2d_6_pointwise/act_quant/FakeQuantWithMinMaxVars", "op": "FakeQuantWithMinMaxVars", "input": ["FeatureExtractor/MobilenetV1/MobilenetV1/Conv2d_6_pointwise/Relu6", "FeatureExtractor/MobilenetV1/MobilenetV1/Conv2d_11_pointwise/act_quant/min", "FeatureExtractor/MobilenetV1/MobilenetV1/Conv2d_11_pointwise/act_quant/max"], "attr": {"narrow_range": {"b": false}, "num_bits": {"i": "8"}}}, {"name": "FeatureExtractor/MobilenetV1/MobilenetV1/Conv2d_7_depthwise/depthwise_Fold", "op": "DepthwiseConv2dNative", "input": ["FeatureExtractor/MobilenetV1/MobilenetV1/Conv2d_6_pointwise/act_quant/FakeQuantWithMinMaxVars", "FeatureExtractor/MobilenetV1/MobilenetV1/Conv2d_7_depthwise/weights_quant/FakeQuantWithMinMaxVars"], "attr": {"dilations": {"list": {"i": ["1", "1", "1", "1"]}}, "padding": {"s": "U0FNRQ=="}, "T": {"type": "DT_FLOAT"}, "data_format": {"s": "TkhXQw=="}, "strides": {"list": {"i": ["1", "1", "1", "1"]}}}}, {"name": "FeatureExtractor/MobilenetV1/MobilenetV1/Conv2d_7_depthwise/add_fold", "op": "Add", "input": ["FeatureExtractor/MobilenetV1/MobilenetV1/Conv2d_7_depthwise/BatchNorm_Fold/bias", "FeatureExtractor/MobilenetV1/MobilenetV1/Conv2d_7_depthwise/depthwise_Fold"], "attr": {"T": {"type": "DT_FLOAT"}}}, {"name": "FeatureExtractor/MobilenetV1/MobilenetV1/Conv2d_7_depthwise/Relu6", "op": "Relu6", "input": ["FeatureExtractor/MobilenetV1/MobilenetV1/Conv2d_7_depthwise/add_fold"], "attr": {"T": {"type": "DT_FLOAT"}}}, {"name": "FeatureExtractor/MobilenetV1/MobilenetV1/Conv2d_7_depthwise/act_quant/FakeQuantWithMinMaxVars", "op": "FakeQuantWithMinMaxVars", "input": ["FeatureExtractor/MobilenetV1/MobilenetV1/Conv2d_7_depthwise/Relu6", "FeatureExtractor/MobilenetV1/MobilenetV1/Conv2d_11_pointwise/act_quant/min", "FeatureExtractor/MobilenetV1/MobilenetV1/Conv2d_11_pointwise/act_quant/max"], "attr": {"narrow_range": {"b": false}, "num_bits": {"i": "8"}}}, {"name": "FeatureExtractor/MobilenetV1/MobilenetV1/Conv2d_7_pointwise/Conv2D_Fold", "op": "Conv2D", "input": ["FeatureExtractor/MobilenetV1/MobilenetV1/Conv2d_7_depthwise/act_quant/FakeQuantWithMinMaxVars", "FeatureExtractor/MobilenetV1/MobilenetV1/Conv2d_7_pointwise/weights_quant/FakeQuantWithMinMaxVars"], "device": "/device:CPU:0", "attr": {"dilations": {"list": {"i": ["1", "1", "1", "1"]}}, "T": {"type": "DT_FLOAT"}, "strides": {"list": {"i": ["1", "1", "1", "1"]}}, "data_format": {"s": "TkhXQw=="}, "use_cudnn_on_gpu": {"b": true}, "explicit_paddings": {"list": {}}, "padding": {"s": "U0FNRQ=="}}}, {"name": "FeatureExtractor/MobilenetV1/MobilenetV1/Conv2d_7_pointwise/add_fold", "op": "Add", "input": ["FeatureExtractor/MobilenetV1/MobilenetV1/Conv2d_7_pointwise/BatchNorm_Fold/bias", "FeatureExtractor/MobilenetV1/MobilenetV1/Conv2d_7_pointwise/Conv2D_Fold"], "attr": {"T": {"type": "DT_FLOAT"}}}, {"name": "FeatureExtractor/MobilenetV1/MobilenetV1/Conv2d_7_pointwise/Relu6", "op": "Relu6", "input": ["FeatureExtractor/MobilenetV1/MobilenetV1/Conv2d_7_pointwise/add_fold"], "attr": {"T": {"type": "DT_FLOAT"}}}, {"name": "FeatureExtractor/MobilenetV1/MobilenetV1/Conv2d_7_pointwise/act_quant/FakeQuantWithMinMaxVars", "op": "FakeQuantWithMinMaxVars", "input": ["FeatureExtractor/MobilenetV1/MobilenetV1/Conv2d_7_pointwise/Relu6", "FeatureExtractor/MobilenetV1/MobilenetV1/Conv2d_11_pointwise/act_quant/min", "FeatureExtractor/MobilenetV1/MobilenetV1/Conv2d_11_pointwise/act_quant/max"], "attr": {"narrow_range": {"b": false}, "num_bits": {"i": "8"}}}, {"name": "FeatureExtractor/MobilenetV1/MobilenetV1/Conv2d_8_depthwise/depthwise_Fold", "op": "DepthwiseConv2dNative", "input": ["FeatureExtractor/MobilenetV1/MobilenetV1/Conv2d_7_pointwise/act_quant/FakeQuantWithMinMaxVars", "FeatureExtractor/MobilenetV1/MobilenetV1/Conv2d_8_depthwise/weights_quant/FakeQuantWithMinMaxVars"], "attr": {"T": {"type": "DT_FLOAT"}, "data_format": {"s": "TkhXQw=="}, "strides": {"list": {"i": ["1", "1", "1", "1"]}}, "dilations": {"list": {"i": ["1", "1", "1", "1"]}}, "padding": {"s": "U0FNRQ=="}}}, {"name": "FeatureExtractor/MobilenetV1/MobilenetV1/Conv2d_8_depthwise/add_fold", "op": "Add", "input": ["FeatureExtractor/MobilenetV1/MobilenetV1/Conv2d_8_depthwise/BatchNorm_Fold/bias", "FeatureExtractor/MobilenetV1/MobilenetV1/Conv2d_8_depthwise/depthwise_Fold"], "attr": {"T": {"type": "DT_FLOAT"}}}, {"name": "FeatureExtractor/MobilenetV1/MobilenetV1/Conv2d_8_depthwise/Relu6", "op": "Relu6", "input": ["FeatureExtractor/MobilenetV1/MobilenetV1/Conv2d_8_depthwise/add_fold"], "attr": {"T": {"type": "DT_FLOAT"}}}, {"name": "FeatureExtractor/MobilenetV1/MobilenetV1/Conv2d_8_depthwise/act_quant/FakeQuantWithMinMaxVars", "op": "FakeQuantWithMinMaxVars", "input": ["FeatureExtractor/MobilenetV1/MobilenetV1/Conv2d_8_depthwise/Relu6", "FeatureExtractor/MobilenetV1/MobilenetV1/Conv2d_11_pointwise/act_quant/min", "FeatureExtractor/MobilenetV1/MobilenetV1/Conv2d_11_pointwise/act_quant/max"], "attr": {"narrow_range": {"b": false}, "num_bits": {"i": "8"}}}, {"name": "FeatureExtractor/MobilenetV1/MobilenetV1/Conv2d_8_pointwise/Conv2D_Fold", "op": "Conv2D", "input": ["FeatureExtractor/MobilenetV1/MobilenetV1/Conv2d_8_depthwise/act_quant/FakeQuantWithMinMaxVars", "FeatureExtractor/MobilenetV1/MobilenetV1/Conv2d_8_pointwise/weights_quant/FakeQuantWithMinMaxVars"], "device": "/device:CPU:0", "attr": {"dilations": {"list": {"i": ["1", "1", "1", "1"]}}, "T": {"type": "DT_FLOAT"}, "strides": {"list": {"i": ["1", "1", "1", "1"]}}, "data_format": {"s": "TkhXQw=="}, "use_cudnn_on_gpu": {"b": true}, "explicit_paddings": {"list": {}}, "padding": {"s": "U0FNRQ=="}}}, {"name": "FeatureExtractor/MobilenetV1/MobilenetV1/Conv2d_8_pointwise/add_fold", "op": "Add", "input": ["FeatureExtractor/MobilenetV1/MobilenetV1/Conv2d_8_pointwise/BatchNorm_Fold/bias", "FeatureExtractor/MobilenetV1/MobilenetV1/Conv2d_8_pointwise/Conv2D_Fold"], "attr": {"T": {"type": "DT_FLOAT"}}}, {"name": "FeatureExtractor/MobilenetV1/MobilenetV1/Conv2d_8_pointwise/Relu6", "op": "Relu6", "input": ["FeatureExtractor/MobilenetV1/MobilenetV1/Conv2d_8_pointwise/add_fold"], "attr": {"T": {"type": "DT_FLOAT"}}}, {"name": "FeatureExtractor/MobilenetV1/MobilenetV1/Conv2d_8_pointwise/act_quant/FakeQuantWithMinMaxVars", "op": "FakeQuantWithMinMaxVars", "input": ["FeatureExtractor/MobilenetV1/MobilenetV1/Conv2d_8_pointwise/Relu6", "FeatureExtractor/MobilenetV1/MobilenetV1/Conv2d_11_pointwise/act_quant/min", "FeatureExtractor/MobilenetV1/MobilenetV1/Conv2d_11_pointwise/act_quant/max"], "attr": {"narrow_range": {"b": false}, "num_bits": {"i": "8"}}}, {"name": "FeatureExtractor/MobilenetV1/MobilenetV1/Conv2d_9_depthwise/depthwise_Fold", "op": "DepthwiseConv2dNative", "input": ["FeatureExtractor/MobilenetV1/MobilenetV1/Conv2d_8_pointwise/act_quant/FakeQuantWithMinMaxVars", "FeatureExtractor/MobilenetV1/MobilenetV1/Conv2d_9_depthwise/weights_quant/FakeQuantWithMinMaxVars"], "attr": {"dilations": {"list": {"i": ["1", "1", "1", "1"]}}, "padding": {"s": "U0FNRQ=="}, "T": {"type": "DT_FLOAT"}, "data_format": {"s": "TkhXQw=="}, "strides": {"list": {"i": ["1", "1", "1", "1"]}}}}, {"name": "FeatureExtractor/MobilenetV1/MobilenetV1/Conv2d_9_depthwise/add_fold", "op": "Add", "input": ["FeatureExtractor/MobilenetV1/MobilenetV1/Conv2d_9_depthwise/BatchNorm_Fold/bias", "FeatureExtractor/MobilenetV1/MobilenetV1/Conv2d_9_depthwise/depthwise_Fold"], "attr": {"T": {"type": "DT_FLOAT"}}}, {"name": "FeatureExtractor/MobilenetV1/MobilenetV1/Conv2d_9_depthwise/Relu6", "op": "Relu6", "input": ["FeatureExtractor/MobilenetV1/MobilenetV1/Conv2d_9_depthwise/add_fold"], "attr": {"T": {"type": "DT_FLOAT"}}}, {"name": "FeatureExtractor/MobilenetV1/MobilenetV1/Conv2d_9_depthwise/act_quant/FakeQuantWithMinMaxVars", "op": "FakeQuantWithMinMaxVars", "input": ["FeatureExtractor/MobilenetV1/MobilenetV1/Conv2d_9_depthwise/Relu6", "FeatureExtractor/MobilenetV1/MobilenetV1/Conv2d_11_pointwise/act_quant/min", "FeatureExtractor/MobilenetV1/MobilenetV1/Conv2d_11_pointwise/act_quant/max"], "attr": {"narrow_range": {"b": false}, "num_bits": {"i": "8"}}}, {"name": "FeatureExtractor/MobilenetV1/MobilenetV1/Conv2d_9_pointwise/Conv2D_Fold", "op": "Conv2D", "input": ["FeatureExtractor/MobilenetV1/MobilenetV1/Conv2d_9_depthwise/act_quant/FakeQuantWithMinMaxVars", "FeatureExtractor/MobilenetV1/MobilenetV1/Conv2d_9_pointwise/weights_quant/FakeQuantWithMinMaxVars"], "device": "/device:CPU:0", "attr": {"dilations": {"list": {"i": ["1", "1", "1", "1"]}}, "T": {"type": "DT_FLOAT"}, "data_format": {"s": "TkhXQw=="}, "strides": {"list": {"i": ["1", "1", "1", "1"]}}, "use_cudnn_on_gpu": {"b": true}, "explicit_paddings": {"list": {}}, "padding": {"s": "U0FNRQ=="}}}, {"name": "FeatureExtractor/MobilenetV1/MobilenetV1/Conv2d_9_pointwise/add_fold", "op": "Add", "input": ["FeatureExtractor/MobilenetV1/MobilenetV1/Conv2d_9_pointwise/BatchNorm_Fold/bias", "FeatureExtractor/MobilenetV1/MobilenetV1/Conv2d_9_pointwise/Conv2D_Fold"], "attr": {"T": {"type": "DT_FLOAT"}}}, {"name": "FeatureExtractor/MobilenetV1/MobilenetV1/Conv2d_9_pointwise/Relu6", "op": "Relu6", "input": ["FeatureExtractor/MobilenetV1/MobilenetV1/Conv2d_9_pointwise/add_fold"], "attr": {"T": {"type": "DT_FLOAT"}}}, {"name": "FeatureExtractor/MobilenetV1/MobilenetV1/Conv2d_9_pointwise/act_quant/FakeQuantWithMinMaxVars", "op": "FakeQuantWithMinMaxVars", "input": ["FeatureExtractor/MobilenetV1/MobilenetV1/Conv2d_9_pointwise/Relu6", "FeatureExtractor/MobilenetV1/MobilenetV1/Conv2d_11_pointwise/act_quant/min", "FeatureExtractor/MobilenetV1/MobilenetV1/Conv2d_11_pointwise/act_quant/max"], "attr": {"narrow_range": {"b": false}, "num_bits": {"i": "8"}}}, {"name": "FeatureExtractor/MobilenetV1/MobilenetV1/Conv2d_10_depthwise/depthwise_Fold", "op": "DepthwiseConv2dNative", "input": ["FeatureExtractor/MobilenetV1/MobilenetV1/Conv2d_9_pointwise/act_quant/FakeQuantWithMinMaxVars", "FeatureExtractor/MobilenetV1/MobilenetV1/Conv2d_10_depthwise/weights_quant/FakeQuantWithMinMaxVars"], "attr": {"dilations": {"list": {"i": ["1", "1", "1", "1"]}}, "padding": {"s": "U0FNRQ=="}, "T": {"type": "DT_FLOAT"}, "data_format": {"s": "TkhXQw=="}, "strides": {"list": {"i": ["1", "1", "1", "1"]}}}}, {"name": "FeatureExtractor/MobilenetV1/MobilenetV1/Conv2d_10_depthwise/add_fold", "op": "Add", "input": ["FeatureExtractor/MobilenetV1/MobilenetV1/Conv2d_10_depthwise/BatchNorm_Fold/bias", "FeatureExtractor/MobilenetV1/MobilenetV1/Conv2d_10_depthwise/depthwise_Fold"], "attr": {"T": {"type": "DT_FLOAT"}}}, {"name": "FeatureExtractor/MobilenetV1/MobilenetV1/Conv2d_10_depthwise/Relu6", "op": "Relu6", "input": ["FeatureExtractor/MobilenetV1/MobilenetV1/Conv2d_10_depthwise/add_fold"], "attr": {"T": {"type": "DT_FLOAT"}}}, {"name": "FeatureExtractor/MobilenetV1/MobilenetV1/Conv2d_10_depthwise/act_quant/FakeQuantWithMinMaxVars", "op": "FakeQuantWithMinMaxVars", "input": ["FeatureExtractor/MobilenetV1/MobilenetV1/Conv2d_10_depthwise/Relu6", "FeatureExtractor/MobilenetV1/MobilenetV1/Conv2d_11_pointwise/act_quant/min", "FeatureExtractor/MobilenetV1/MobilenetV1/Conv2d_11_pointwise/act_quant/max"], "attr": {"narrow_range": {"b": false}, "num_bits": {"i": "8"}}}, {"name": "FeatureExtractor/MobilenetV1/MobilenetV1/Conv2d_10_pointwise/Conv2D_Fold", "op": "Conv2D", "input": ["FeatureExtractor/MobilenetV1/MobilenetV1/Conv2d_10_depthwise/act_quant/FakeQuantWithMinMaxVars", "FeatureExtractor/MobilenetV1/MobilenetV1/Conv2d_10_pointwise/weights_quant/FakeQuantWithMinMaxVars"], "device": "/device:CPU:0", "attr": {"dilations": {"list": {"i": ["1", "1", "1", "1"]}}, "T": {"type": "DT_FLOAT"}, "data_format": {"s": "TkhXQw=="}, "strides": {"list": {"i": ["1", "1", "1", "1"]}}, "use_cudnn_on_gpu": {"b": true}, "explicit_paddings": {"list": {}}, "padding": {"s": "U0FNRQ=="}}}, {"name": "FeatureExtractor/MobilenetV1/MobilenetV1/Conv2d_10_pointwise/add_fold", "op": "Add", "input": ["FeatureExtractor/MobilenetV1/MobilenetV1/Conv2d_10_pointwise/BatchNorm_Fold/bias", "FeatureExtractor/MobilenetV1/MobilenetV1/Conv2d_10_pointwise/Conv2D_Fold"], "attr": {"T": {"type": "DT_FLOAT"}}}, {"name": "FeatureExtractor/MobilenetV1/MobilenetV1/Conv2d_10_pointwise/Relu6", "op": "Relu6", "input": ["FeatureExtractor/MobilenetV1/MobilenetV1/Conv2d_10_pointwise/add_fold"], "attr": {"T": {"type": "DT_FLOAT"}}}, {"name": "FeatureExtractor/MobilenetV1/MobilenetV1/Conv2d_10_pointwise/act_quant/FakeQuantWithMinMaxVars", "op": "FakeQuantWithMinMaxVars", "input": ["FeatureExtractor/MobilenetV1/MobilenetV1/Conv2d_10_pointwise/Relu6", "FeatureExtractor/MobilenetV1/MobilenetV1/Conv2d_11_pointwise/act_quant/min", "FeatureExtractor/MobilenetV1/MobilenetV1/Conv2d_11_pointwise/act_quant/max"], "attr": {"narrow_range": {"b": false}, "num_bits": {"i": "8"}}}, {"name": "FeatureExtractor/MobilenetV1/MobilenetV1/Conv2d_11_depthwise/depthwise_Fold", "op": "DepthwiseConv2dNative", "input": ["FeatureExtractor/MobilenetV1/MobilenetV1/Conv2d_10_pointwise/act_quant/FakeQuantWithMinMaxVars", "FeatureExtractor/MobilenetV1/MobilenetV1/Conv2d_11_depthwise/weights_quant/FakeQuantWithMinMaxVars"], "attr": {"dilations": {"list": {"i": ["1", "1", "1", "1"]}}, "padding": {"s": "U0FNRQ=="}, "T": {"type": "DT_FLOAT"}, "data_format": {"s": "TkhXQw=="}, "strides": {"list": {"i": ["1", "1", "1", "1"]}}}}, {"name": "FeatureExtractor/MobilenetV1/MobilenetV1/Conv2d_11_depthwise/add_fold", "op": "Add", "input": ["FeatureExtractor/MobilenetV1/MobilenetV1/Conv2d_11_depthwise/BatchNorm_Fold/bias", "FeatureExtractor/MobilenetV1/MobilenetV1/Conv2d_11_depthwise/depthwise_Fold"], "attr": {"T": {"type": "DT_FLOAT"}}}, {"name": "FeatureExtractor/MobilenetV1/MobilenetV1/Conv2d_11_depthwise/Relu6", "op": "Relu6", "input": ["FeatureExtractor/MobilenetV1/MobilenetV1/Conv2d_11_depthwise/add_fold"], "attr": {"T": {"type": "DT_FLOAT"}}}, {"name": "FeatureExtractor/MobilenetV1/MobilenetV1/Conv2d_11_depthwise/act_quant/FakeQuantWithMinMaxVars", "op": "FakeQuantWithMinMaxVars", "input": ["FeatureExtractor/MobilenetV1/MobilenetV1/Conv2d_11_depthwise/Relu6", "FeatureExtractor/MobilenetV1/MobilenetV1/Conv2d_11_pointwise/act_quant/min", "FeatureExtractor/MobilenetV1/MobilenetV1/Conv2d_11_pointwise/act_quant/max"], "attr": {"narrow_range": {"b": false}, "num_bits": {"i": "8"}}}, {"name": "FeatureExtractor/MobilenetV1/MobilenetV1/Conv2d_11_pointwise/Conv2D_Fold", "op": "Conv2D", "input": ["FeatureExtractor/MobilenetV1/MobilenetV1/Conv2d_11_depthwise/act_quant/FakeQuantWithMinMaxVars", "FeatureExtractor/MobilenetV1/MobilenetV1/Conv2d_11_pointwise/weights_quant/FakeQuantWithMinMaxVars"], "device": "/device:CPU:0", "attr": {"dilations": {"list": {"i": ["1", "1", "1", "1"]}}, "T": {"type": "DT_FLOAT"}, "strides": {"list": {"i": ["1", "1", "1", "1"]}}, "data_format": {"s": "TkhXQw=="}, "explicit_paddings": {"list": {}}, "use_cudnn_on_gpu": {"b": true}, "padding": {"s": "U0FNRQ=="}}}, {"name": "FeatureExtractor/MobilenetV1/MobilenetV1/Conv2d_11_pointwise/add_fold", "op": "Add", "input": ["FeatureExtractor/MobilenetV1/MobilenetV1/Conv2d_11_pointwise/BatchNorm_Fold/bias", "FeatureExtractor/MobilenetV1/MobilenetV1/Conv2d_11_pointwise/Conv2D_Fold"], "attr": {"T": {"type": "DT_FLOAT"}}}, {"name": "FeatureExtractor/MobilenetV1/MobilenetV1/Conv2d_11_pointwise/Relu6", "op": "Relu6", "input": ["FeatureExtractor/MobilenetV1/MobilenetV1/Conv2d_11_pointwise/add_fold"], "attr": {"T": {"type": "DT_FLOAT"}}}, {"name": "FeatureExtractor/MobilenetV1/MobilenetV1/Conv2d_11_pointwise/act_quant/FakeQuantWithMinMaxVars", "op": "FakeQuantWithMinMaxVars", "input": ["FeatureExtractor/MobilenetV1/MobilenetV1/Conv2d_11_pointwise/Relu6", "FeatureExtractor/MobilenetV1/MobilenetV1/Conv2d_11_pointwise/act_quant/min", "FeatureExtractor/MobilenetV1/MobilenetV1/Conv2d_11_pointwise/act_quant/max"], "attr": {"narrow_range": {"b": false}, "num_bits": {"i": "8"}}}, {"name": "BoxPredictor_0/Shape", "op": "Shape", "input": ["FeatureExtractor/MobilenetV1/MobilenetV1/Conv2d_11_pointwise/act_quant/FakeQuantWithMinMaxVars"], "attr": {"T": {"type": "DT_FLOAT"}, "out_type": {"type": "DT_INT32"}}}, {"name": "FeatureExtractor/MobilenetV1/MobilenetV1/Conv2d_12_depthwise/depthwise_Fold", "op": "DepthwiseConv2dNative", "input": ["FeatureExtractor/MobilenetV1/MobilenetV1/Conv2d_11_pointwise/act_quant/FakeQuantWithMinMaxVars", "FeatureExtractor/MobilenetV1/MobilenetV1/Conv2d_12_depthwise/weights_quant/FakeQuantWithMinMaxVars"], "attr": {"dilations": {"list": {"i": ["1", "1", "1", "1"]}}, "padding": {"s": "U0FNRQ=="}, "T": {"type": "DT_FLOAT"}, "data_format": {"s": "TkhXQw=="}, "strides": {"list": {"i": ["1", "2", "2", "1"]}}}}, {"name": "BoxPredictor_0/BoxEncodingPredictor/BiasAdd", "op": "_FusedConv2D", "input": ["FeatureExtractor/MobilenetV1/MobilenetV1/Conv2d_11_pointwise/act_quant/FakeQuantWithMinMaxVars", "BoxPredictor_0/BoxEncodingPredictor/weights_quant/FakeQuantWithMinMaxVars", "BoxPredictor_0/BoxEncodingPredictor/biases"], "device": "/device:CPU:0", "attr": {"num_args": {"i": "1"}, "epsilon": {"f": 0.0}, "padding": {"s": "U0FNRQ=="}, "fused_ops": {"list": {"s": ["Qmlhc0FkZA=="]}}, "dilations": {"list": {"i": ["1", "1", "1", "1"]}}, "T": {"type": "DT_FLOAT"}, "strides": {"list": {"i": ["1", "1", "1", "1"]}}, "data_format": {"s": "TkhXQw=="}, "use_cudnn_on_gpu": {"b": true}, "explicit_paddings": {"list": {}}}}, {"name": "BoxPredictor_0/ClassPredictor/BiasAdd", "op": "_FusedConv2D", "input": ["FeatureExtractor/MobilenetV1/MobilenetV1/Conv2d_11_pointwise/act_quant/FakeQuantWithMinMaxVars", "BoxPredictor_0/ClassPredictor/weights_quant/FakeQuantWithMinMaxVars", "BoxPredictor_0/ClassPredictor/biases"], "device": "/device:CPU:0", "attr": {"dilations": {"list": {"i": ["1", "1", "1", "1"]}}, "T": {"type": "DT_FLOAT"}, "strides": {"list": {"i": ["1", "1", "1", "1"]}}, "data_format": {"s": "TkhXQw=="}, "explicit_paddings": {"list": {}}, "use_cudnn_on_gpu": {"b": true}, "num_args": {"i": "1"}, "epsilon": {"f": 0.0}, "padding": {"s": "U0FNRQ=="}, "fused_ops": {"list": {"s": ["Qmlhc0FkZA=="]}}}}, {"name": "BoxPredictor_0/strided_slice", "op": "StridedSlice", "input": ["BoxPredictor_0/Shape", "Preprocessor/map/strided_slice/stack", "Preprocessor/map/strided_slice/stack_1", "Preprocessor/map/strided_slice/stack_1"], "attr": {"T": {"type": "DT_INT32"}, "Index": {"type": "DT_INT32"}, "shrink_axis_mask": {"i": "1"}, "begin_mask": {"i": "0"}, "ellipsis_mask": {"i": "0"}, "new_axis_mask": {"i": "0"}, "end_mask": {"i": "0"}}}, {"name": "FeatureExtractor/MobilenetV1/MobilenetV1/Conv2d_12_depthwise/add_fold", "op": "Add", "input": ["FeatureExtractor/MobilenetV1/MobilenetV1/Conv2d_12_depthwise/BatchNorm_Fold/bias", "FeatureExtractor/MobilenetV1/MobilenetV1/Conv2d_12_depthwise/depthwise_Fold"], "attr": {"T": {"type": "DT_FLOAT"}}}, {"name": "BoxPredictor_0/BoxEncodingPredictor/act_quant/FakeQuantWithMinMaxVars", "op": "FakeQuantWithMinMaxVars", "input": ["BoxPredictor_0/BoxEncodingPredictor/BiasAdd", "BoxPredictor_0/BoxEncodingPredictor/act_quant/min", "BoxPredictor_0/BoxEncodingPredictor/act_quant/max"], "attr": {"narrow_range": {"b": false}, "num_bits": {"i": "8"}}}, {"name": "BoxPredictor_0/ClassPredictor/act_quant/FakeQuantWithMinMaxVars", "op": "FakeQuantWithMinMaxVars", "input": ["BoxPredictor_0/ClassPredictor/BiasAdd", "BoxPredictor_0/ClassPredictor/act_quant/min", "BoxPredictor_0/ClassPredictor/act_quant/max"], "attr": {"narrow_range": {"b": false}, "num_bits": {"i": "8"}}}, {"name": "BoxPredictor_0/Reshape/shape", "op": "Pack", "input": ["BoxPredictor_0/strided_slice", "BoxPredictor_0/Reshape/shape/1", "Preprocessor/map/TensorArrayUnstack/range/delta", "BoxPredictor_0/Reshape/shape/3"], "attr": {"T": {"type": "DT_INT32"}, "axis": {"i": "0"}, "N": {"i": "4"}}}, {"name": "BoxPredictor_0/Reshape_1/shape", "op": "Pack", "input": ["BoxPredictor_0/strided_slice", "BoxPredictor_0/Reshape/shape/1", "BoxPredictor_0/Reshape_1/shape/2"], "attr": {"T": {"type": "DT_INT32"}, "axis": {"i": "0"}, "N": {"i": "3"}}}, {"name": "FeatureExtractor/MobilenetV1/MobilenetV1/Conv2d_12_depthwise/Relu6", "op": "Relu6", "input": ["FeatureExtractor/MobilenetV1/MobilenetV1/Conv2d_12_depthwise/add_fold"], "attr": {"T": {"type": "DT_FLOAT"}}}, {"name": "BoxPredictor_0/Reshape", "op": "Reshape", "input": ["BoxPredictor_0/BoxEncodingPredictor/act_quant/FakeQuantWithMinMaxVars", "BoxPredictor_0/Reshape/shape"], "attr": {"T": {"type": "DT_FLOAT"}, "Tshape": {"type": "DT_INT32"}}}, {"name": "BoxPredictor_0/Reshape_1", "op": "Reshape", "input": ["BoxPredictor_0/ClassPredictor/act_quant/FakeQuantWithMinMaxVars", "BoxPredictor_0/Reshape_1/shape"], "attr": {"T": {"type": "DT_FLOAT"}, "Tshape": {"type": "DT_INT32"}}}, {"name": "FeatureExtractor/MobilenetV1/MobilenetV1/Conv2d_12_depthwise/act_quant/FakeQuantWithMinMaxVars", "op": "FakeQuantWithMinMaxVars", "input": ["FeatureExtractor/MobilenetV1/MobilenetV1/Conv2d_12_depthwise/Relu6", "FeatureExtractor/MobilenetV1/MobilenetV1/Conv2d_11_pointwise/act_quant/min", "FeatureExtractor/MobilenetV1/MobilenetV1/Conv2d_11_pointwise/act_quant/max"], "attr": {"narrow_range": {"b": false}, "num_bits": {"i": "8"}}}, {"name": "FeatureExtractor/MobilenetV1/MobilenetV1/Conv2d_12_pointwise/Conv2D_Fold", "op": "Conv2D", "input": ["FeatureExtractor/MobilenetV1/MobilenetV1/Conv2d_12_depthwise/act_quant/FakeQuantWithMinMaxVars", "FeatureExtractor/MobilenetV1/MobilenetV1/Conv2d_12_pointwise/weights_quant/FakeQuantWithMinMaxVars"], "device": "/device:CPU:0", "attr": {"dilations": {"list": {"i": ["1", "1", "1", "1"]}}, "T": {"type": "DT_FLOAT"}, "data_format": {"s": "TkhXQw=="}, "strides": {"list": {"i": ["1", "1", "1", "1"]}}, "use_cudnn_on_gpu": {"b": true}, "explicit_paddings": {"list": {}}, "padding": {"s": "U0FNRQ=="}}}, {"name": "FeatureExtractor/MobilenetV1/MobilenetV1/Conv2d_12_pointwise/add_fold", "op": "Add", "input": ["FeatureExtractor/MobilenetV1/MobilenetV1/Conv2d_12_pointwise/BatchNorm_Fold/bias", "FeatureExtractor/MobilenetV1/MobilenetV1/Conv2d_12_pointwise/Conv2D_Fold"], "attr": {"T": {"type": "DT_FLOAT"}}}, {"name": "FeatureExtractor/MobilenetV1/MobilenetV1/Conv2d_12_pointwise/Relu6", "op": "Relu6", "input": ["FeatureExtractor/MobilenetV1/MobilenetV1/Conv2d_12_pointwise/add_fold"], "attr": {"T": {"type": "DT_FLOAT"}}}, {"name": "FeatureExtractor/MobilenetV1/MobilenetV1/Conv2d_12_pointwise/act_quant/FakeQuantWithMinMaxVars", "op": "FakeQuantWithMinMaxVars", "input": ["FeatureExtractor/MobilenetV1/MobilenetV1/Conv2d_12_pointwise/Relu6", "FeatureExtractor/MobilenetV1/MobilenetV1/Conv2d_11_pointwise/act_quant/min", "FeatureExtractor/MobilenetV1/MobilenetV1/Conv2d_11_pointwise/act_quant/max"], "attr": {"narrow_range": {"b": false}, "num_bits": {"i": "8"}}}, {"name": "FeatureExtractor/MobilenetV1/MobilenetV1/Conv2d_13_depthwise/depthwise_Fold", "op": "DepthwiseConv2dNative", "input": ["FeatureExtractor/MobilenetV1/MobilenetV1/Conv2d_12_pointwise/act_quant/FakeQuantWithMinMaxVars", "FeatureExtractor/MobilenetV1/MobilenetV1/Conv2d_13_depthwise/weights_quant/FakeQuantWithMinMaxVars"], "attr": {"dilations": {"list": {"i": ["1", "1", "1", "1"]}}, "padding": {"s": "U0FNRQ=="}, "T": {"type": "DT_FLOAT"}, "data_format": {"s": "TkhXQw=="}, "strides": {"list": {"i": ["1", "1", "1", "1"]}}}}, {"name": "FeatureExtractor/MobilenetV1/MobilenetV1/Conv2d_13_depthwise/add_fold", "op": "Add", "input": ["FeatureExtractor/MobilenetV1/MobilenetV1/Conv2d_13_depthwise/BatchNorm_Fold/bias", "FeatureExtractor/MobilenetV1/MobilenetV1/Conv2d_13_depthwise/depthwise_Fold"], "attr": {"T": {"type": "DT_FLOAT"}}}, {"name": "FeatureExtractor/MobilenetV1/MobilenetV1/Conv2d_13_depthwise/Relu6", "op": "Relu6", "input": ["FeatureExtractor/MobilenetV1/MobilenetV1/Conv2d_13_depthwise/add_fold"], "attr": {"T": {"type": "DT_FLOAT"}}}, {"name": "FeatureExtractor/MobilenetV1/MobilenetV1/Conv2d_13_depthwise/act_quant/FakeQuantWithMinMaxVars", "op": "FakeQuantWithMinMaxVars", "input": ["FeatureExtractor/MobilenetV1/MobilenetV1/Conv2d_13_depthwise/Relu6", "FeatureExtractor/MobilenetV1/MobilenetV1/Conv2d_11_pointwise/act_quant/min", "FeatureExtractor/MobilenetV1/MobilenetV1/Conv2d_11_pointwise/act_quant/max"], "attr": {"narrow_range": {"b": false}, "num_bits": {"i": "8"}}}, {"name": "FeatureExtractor/MobilenetV1/MobilenetV1/Conv2d_13_pointwise/Conv2D_Fold", "op": "Conv2D", "input": ["FeatureExtractor/MobilenetV1/MobilenetV1/Conv2d_13_depthwise/act_quant/FakeQuantWithMinMaxVars", "FeatureExtractor/MobilenetV1/MobilenetV1/Conv2d_13_pointwise/weights_quant/FakeQuantWithMinMaxVars"], "device": "/device:CPU:0", "attr": {"padding": {"s": "U0FNRQ=="}, "dilations": {"list": {"i": ["1", "1", "1", "1"]}}, "T": {"type": "DT_FLOAT"}, "strides": {"list": {"i": ["1", "1", "1", "1"]}}, "data_format": {"s": "TkhXQw=="}, "use_cudnn_on_gpu": {"b": true}, "explicit_paddings": {"list": {}}}}, {"name": "FeatureExtractor/MobilenetV1/MobilenetV1/Conv2d_13_pointwise/add_fold", "op": "Add", "input": ["FeatureExtractor/MobilenetV1/MobilenetV1/Conv2d_13_pointwise/BatchNorm_Fold/bias", "FeatureExtractor/MobilenetV1/MobilenetV1/Conv2d_13_pointwise/Conv2D_Fold"], "attr": {"T": {"type": "DT_FLOAT"}}}, {"name": "FeatureExtractor/MobilenetV1/MobilenetV1/Conv2d_13_pointwise/Relu6", "op": "Relu6", "input": ["FeatureExtractor/MobilenetV1/MobilenetV1/Conv2d_13_pointwise/add_fold"], "attr": {"T": {"type": "DT_FLOAT"}}}, {"name": "FeatureExtractor/MobilenetV1/MobilenetV1/Conv2d_13_pointwise/act_quant/FakeQuantWithMinMaxVars", "op": "FakeQuantWithMinMaxVars", "input": ["FeatureExtractor/MobilenetV1/MobilenetV1/Conv2d_13_pointwise/Relu6", "FeatureExtractor/MobilenetV1/MobilenetV1/Conv2d_11_pointwise/act_quant/min", "FeatureExtractor/MobilenetV1/MobilenetV1/Conv2d_11_pointwise/act_quant/max"], "attr": {"narrow_range": {"b": false}, "num_bits": {"i": "8"}}}, {"name": "BoxPredictor_1/Shape", "op": "Shape", "input": ["FeatureExtractor/MobilenetV1/MobilenetV1/Conv2d_13_pointwise/act_quant/FakeQuantWithMinMaxVars"], "attr": {"T": {"type": "DT_FLOAT"}, "out_type": {"type": "DT_INT32"}}}, {"name": "FeatureExtractor/MobilenetV1/Conv2d_13_pointwise_1_Conv2d_2_1x1_256/Conv2D_Fold", "op": "Conv2D", "input": ["FeatureExtractor/MobilenetV1/MobilenetV1/Conv2d_13_pointwise/act_quant/FakeQuantWithMinMaxVars", "FeatureExtractor/MobilenetV1/Conv2d_13_pointwise_1_Conv2d_2_1x1_256/weights_quant/FakeQuantWithMinMaxVars"], "device": "/device:CPU:0", "attr": {"dilations": {"list": {"i": ["1", "1", "1", "1"]}}, "T": {"type": "DT_FLOAT"}, "strides": {"list": {"i": ["1", "1", "1", "1"]}}, "data_format": {"s": "TkhXQw=="}, "explicit_paddings": {"list": {}}, "use_cudnn_on_gpu": {"b": true}, "padding": {"s": "U0FNRQ=="}}}, {"name": "BoxPredictor_1/BoxEncodingPredictor/BiasAdd", "op": "_FusedConv2D", "input": ["FeatureExtractor/MobilenetV1/MobilenetV1/Conv2d_13_pointwise/act_quant/FakeQuantWithMinMaxVars", "BoxPredictor_1/BoxEncodingPredictor/weights_quant/FakeQuantWithMinMaxVars", "BoxPredictor_1/BoxEncodingPredictor/biases"], "device": "/device:CPU:0", "attr": {"strides": {"list": {"i": ["1", "1", "1", "1"]}}, "data_format": {"s": "TkhXQw=="}, "explicit_paddings": {"list": {}}, "use_cudnn_on_gpu": {"b": true}, "num_args": {"i": "1"}, "epsilon": {"f": 0.0}, "padding": {"s": "U0FNRQ=="}, "fused_ops": {"list": {"s": ["Qmlhc0FkZA=="]}}, "dilations": {"list": {"i": ["1", "1", "1", "1"]}}, "T": {"type": "DT_FLOAT"}}}, {"name": "BoxPredictor_1/ClassPredictor/BiasAdd", "op": "_FusedConv2D", "input": ["FeatureExtractor/MobilenetV1/MobilenetV1/Conv2d_13_pointwise/act_quant/FakeQuantWithMinMaxVars", "BoxPredictor_1/ClassPredictor/weights_quant/FakeQuantWithMinMaxVars", "BoxPredictor_1/ClassPredictor/biases"], "device": "/device:CPU:0", "attr": {"epsilon": {"f": 0.0}, "padding": {"s": "U0FNRQ=="}, "fused_ops": {"list": {"s": ["Qmlhc0FkZA=="]}}, "dilations": {"list": {"i": ["1", "1", "1", "1"]}}, "T": {"type": "DT_FLOAT"}, "data_format": {"s": "TkhXQw=="}, "strides": {"list": {"i": ["1", "1", "1", "1"]}}, "explicit_paddings": {"list": {}}, "use_cudnn_on_gpu": {"b": true}, "num_args": {"i": "1"}}}, {"name": "BoxPredictor_1/strided_slice", "op": "StridedSlice", "input": ["BoxPredictor_1/Shape", "Preprocessor/map/strided_slice/stack", "Preprocessor/map/strided_slice/stack_1", "Preprocessor/map/strided_slice/stack_1"], "attr": {"shrink_axis_mask": {"i": "1"}, "ellipsis_mask": {"i": "0"}, "begin_mask": {"i": "0"}, "new_axis_mask": {"i": "0"}, "end_mask": {"i": "0"}, "T": {"type": "DT_INT32"}, "Index": {"type": "DT_INT32"}}}, {"name": "FeatureExtractor/MobilenetV1/Conv2d_13_pointwise_1_Conv2d_2_1x1_256/add_fold", "op": "Add", "input": ["FeatureExtractor/MobilenetV1/Conv2d_13_pointwise_1_Conv2d_2_1x1_256/BatchNorm_Fold/bias", "FeatureExtractor/MobilenetV1/Conv2d_13_pointwise_1_Conv2d_2_1x1_256/Conv2D_Fold"], "attr": {"T": {"type": "DT_FLOAT"}}}, {"name": "BoxPredictor_1/BoxEncodingPredictor/act_quant/FakeQuantWithMinMaxVars", "op": "FakeQuantWithMinMaxVars", "input": ["BoxPredictor_1/BoxEncodingPredictor/BiasAdd", "BoxPredictor_1/BoxEncodingPredictor/act_quant/min", "BoxPredictor_1/BoxEncodingPredictor/act_quant/max"], "attr": {"narrow_range": {"b": false}, "num_bits": {"i": "8"}}}, {"name": "BoxPredictor_1/ClassPredictor/act_quant/FakeQuantWithMinMaxVars", "op": "FakeQuantWithMinMaxVars", "input": ["BoxPredictor_1/ClassPredictor/BiasAdd", "BoxPredictor_1/ClassPredictor/act_quant/min", "BoxPredictor_1/ClassPredictor/act_quant/max"], "attr": {"narrow_range": {"b": false}, "num_bits": {"i": "8"}}}, {"name": "BoxPredictor_1/Reshape/shape", "op": "Pack", "input": ["BoxPredictor_1/strided_slice", "BoxPredictor_0/Reshape/shape/1", "Preprocessor/map/TensorArrayUnstack/range/delta", "BoxPredictor_0/Reshape/shape/3"], "attr": {"T": {"type": "DT_INT32"}, "axis": {"i": "0"}, "N": {"i": "4"}}}, {"name": "BoxPredictor_1/Reshape_1/shape", "op": "Pack", "input": ["BoxPredictor_1/strided_slice", "BoxPredictor_0/Reshape/shape/1", "BoxPredictor_0/Reshape_1/shape/2"], "attr": {"T": {"type": "DT_INT32"}, "axis": {"i": "0"}, "N": {"i": "3"}}}, {"name": "FeatureExtractor/MobilenetV1/Conv2d_13_pointwise_1_Conv2d_2_1x1_256/Relu6", "op": "Relu6", "input": ["FeatureExtractor/MobilenetV1/Conv2d_13_pointwise_1_Conv2d_2_1x1_256/add_fold"], "attr": {"T": {"type": "DT_FLOAT"}}}, {"name": "BoxPredictor_1/Reshape", "op": "Reshape", "input": ["BoxPredictor_1/BoxEncodingPredictor/act_quant/FakeQuantWithMinMaxVars", "BoxPredictor_1/Reshape/shape"], "attr": {"T": {"type": "DT_FLOAT"}, "Tshape": {"type": "DT_INT32"}}}, {"name": "BoxPredictor_1/Reshape_1", "op": "Reshape", "input": ["BoxPredictor_1/ClassPredictor/act_quant/FakeQuantWithMinMaxVars", "BoxPredictor_1/Reshape_1/shape"], "attr": {"T": {"type": "DT_FLOAT"}, "Tshape": {"type": "DT_INT32"}}}, {"name": "FeatureExtractor/MobilenetV1/Conv2d_13_pointwise_1_Conv2d_2_1x1_256/act_quant/FakeQuantWithMinMaxVars", "op": "FakeQuantWithMinMaxVars", "input": ["FeatureExtractor/MobilenetV1/Conv2d_13_pointwise_1_Conv2d_2_1x1_256/Relu6", "FeatureExtractor/MobilenetV1/Conv2d_13_pointwise_1_Conv2d_2_1x1_256/act_quant/min", "FeatureExtractor/MobilenetV1/Conv2d_13_pointwise_1_Conv2d_2_1x1_256/act_quant/max"], "attr": {"narrow_range": {"b": false}, "num_bits": {"i": "8"}}}, {"name": "FeatureExtractor/MobilenetV1/Conv2d_13_pointwise_2_Conv2d_2_3x3_s2_512/Conv2D_Fold", "op": "Conv2D", "input": ["FeatureExtractor/MobilenetV1/Conv2d_13_pointwise_1_Conv2d_2_1x1_256/act_quant/FakeQuantWithMinMaxVars", "FeatureExtractor/MobilenetV1/Conv2d_13_pointwise_2_Conv2d_2_3x3_s2_512/weights_quant/FakeQuantWithMinMaxVars"], "device": "/device:CPU:0", "attr": {"use_cudnn_on_gpu": {"b": true}, "explicit_paddings": {"list": {}}, "padding": {"s": "U0FNRQ=="}, "dilations": {"list": {"i": ["1", "1", "1", "1"]}}, "T": {"type": "DT_FLOAT"}, "strides": {"list": {"i": ["1", "2", "2", "1"]}}, "data_format": {"s": "TkhXQw=="}}}, {"name": "FeatureExtractor/MobilenetV1/Conv2d_13_pointwise_2_Conv2d_2_3x3_s2_512/add_fold", "op": "Add", "input": ["FeatureExtractor/MobilenetV1/Conv2d_13_pointwise_2_Conv2d_2_3x3_s2_512/BatchNorm_Fold/bias", "FeatureExtractor/MobilenetV1/Conv2d_13_pointwise_2_Conv2d_2_3x3_s2_512/Conv2D_Fold"], "attr": {"T": {"type": "DT_FLOAT"}}}, {"name": "FeatureExtractor/MobilenetV1/Conv2d_13_pointwise_2_Conv2d_2_3x3_s2_512/Relu6", "op": "Relu6", "input": ["FeatureExtractor/MobilenetV1/Conv2d_13_pointwise_2_Conv2d_2_3x3_s2_512/add_fold"], "attr": {"T": {"type": "DT_FLOAT"}}}, {"name": "FeatureExtractor/MobilenetV1/Conv2d_13_pointwise_2_Conv2d_2_3x3_s2_512/act_quant/FakeQuantWithMinMaxVars", "op": "FakeQuantWithMinMaxVars", "input": ["FeatureExtractor/MobilenetV1/Conv2d_13_pointwise_2_Conv2d_2_3x3_s2_512/Relu6", "FeatureExtractor/MobilenetV1/Conv2d_13_pointwise_2_Conv2d_2_3x3_s2_512/act_quant/min", "FeatureExtractor/MobilenetV1/Conv2d_13_pointwise_2_Conv2d_2_3x3_s2_512/act_quant/max"], "attr": {"narrow_range": {"b": false}, "num_bits": {"i": "8"}}}, {"name": "BoxPredictor_2/Shape", "op": "Shape", "input": ["FeatureExtractor/MobilenetV1/Conv2d_13_pointwise_2_Conv2d_2_3x3_s2_512/act_quant/FakeQuantWithMinMaxVars"], "attr": {"T": {"type": "DT_FLOAT"}, "out_type": {"type": "DT_INT32"}}}, {"name": "FeatureExtractor/MobilenetV1/Conv2d_13_pointwise_1_Conv2d_3_1x1_128/Conv2D_Fold", "op": "Conv2D", "input": ["FeatureExtractor/MobilenetV1/Conv2d_13_pointwise_2_Conv2d_2_3x3_s2_512/act_quant/FakeQuantWithMinMaxVars", "FeatureExtractor/MobilenetV1/Conv2d_13_pointwise_1_Conv2d_3_1x1_128/weights_quant/FakeQuantWithMinMaxVars"], "device": "/device:CPU:0", "attr": {"padding": {"s": "U0FNRQ=="}, "dilations": {"list": {"i": ["1", "1", "1", "1"]}}, "T": {"type": "DT_FLOAT"}, "strides": {"list": {"i": ["1", "1", "1", "1"]}}, "data_format": {"s": "TkhXQw=="}, "explicit_paddings": {"list": {}}, "use_cudnn_on_gpu": {"b": true}}}, {"name": "BoxPredictor_2/BoxEncodingPredictor/BiasAdd", "op": "_FusedConv2D", "input": ["FeatureExtractor/MobilenetV1/Conv2d_13_pointwise_2_Conv2d_2_3x3_s2_512/act_quant/FakeQuantWithMinMaxVars", "BoxPredictor_2/BoxEncodingPredictor/weights_quant/FakeQuantWithMinMaxVars", "BoxPredictor_2/BoxEncodingPredictor/biases"], "device": "/device:CPU:0", "attr": {"dilations": {"list": {"i": ["1", "1", "1", "1"]}}, "T": {"type": "DT_FLOAT"}, "strides": {"list": {"i": ["1", "1", "1", "1"]}}, "data_format": {"s": "TkhXQw=="}, "use_cudnn_on_gpu": {"b": true}, "explicit_paddings": {"list": {}}, "num_args": {"i": "1"}, "epsilon": {"f": 0.0}, "padding": {"s": "U0FNRQ=="}, "fused_ops": {"list": {"s": ["Qmlhc0FkZA=="]}}}}, {"name": "BoxPredictor_2/ClassPredictor/BiasAdd", "op": "_FusedConv2D", "input": ["FeatureExtractor/MobilenetV1/Conv2d_13_pointwise_2_Conv2d_2_3x3_s2_512/act_quant/FakeQuantWithMinMaxVars", "BoxPredictor_2/ClassPredictor/weights_quant/FakeQuantWithMinMaxVars", "BoxPredictor_2/ClassPredictor/biases"], "device": "/device:CPU:0", "attr": {"epsilon": {"f": 0.0}, "padding": {"s": "U0FNRQ=="}, "fused_ops": {"list": {"s": ["Qmlhc0FkZA=="]}}, "dilations": {"list": {"i": ["1", "1", "1", "1"]}}, "T": {"type": "DT_FLOAT"}, "data_format": {"s": "TkhXQw=="}, "strides": {"list": {"i": ["1", "1", "1", "1"]}}, "explicit_paddings": {"list": {}}, "use_cudnn_on_gpu": {"b": true}, "num_args": {"i": "1"}}}, {"name": "BoxPredictor_2/strided_slice", "op": "StridedSlice", "input": ["BoxPredictor_2/Shape", "Preprocessor/map/strided_slice/stack", "Preprocessor/map/strided_slice/stack_1", "Preprocessor/map/strided_slice/stack_1"], "attr": {"T": {"type": "DT_INT32"}, "Index": {"type": "DT_INT32"}, "shrink_axis_mask": {"i": "1"}, "begin_mask": {"i": "0"}, "ellipsis_mask": {"i": "0"}, "new_axis_mask": {"i": "0"}, "end_mask": {"i": "0"}}}, {"name": "FeatureExtractor/MobilenetV1/Conv2d_13_pointwise_1_Conv2d_3_1x1_128/add_fold", "op": "Add", "input": ["FeatureExtractor/MobilenetV1/Conv2d_13_pointwise_1_Conv2d_3_1x1_128/BatchNorm_Fold/bias", "FeatureExtractor/MobilenetV1/Conv2d_13_pointwise_1_Conv2d_3_1x1_128/Conv2D_Fold"], "attr": {"T": {"type": "DT_FLOAT"}}}, {"name": "BoxPredictor_2/BoxEncodingPredictor/act_quant/FakeQuantWithMinMaxVars", "op": "FakeQuantWithMinMaxVars", "input": ["BoxPredictor_2/BoxEncodingPredictor/BiasAdd", "BoxPredictor_2/BoxEncodingPredictor/act_quant/min", "BoxPredictor_2/BoxEncodingPredictor/act_quant/max"], "attr": {"narrow_range": {"b": false}, "num_bits": {"i": "8"}}}, {"name": "BoxPredictor_2/ClassPredictor/act_quant/FakeQuantWithMinMaxVars", "op": "FakeQuantWithMinMaxVars", "input": ["BoxPredictor_2/ClassPredictor/BiasAdd", "BoxPredictor_2/ClassPredictor/act_quant/min", "BoxPredictor_2/ClassPredictor/act_quant/max"], "attr": {"narrow_range": {"b": false}, "num_bits": {"i": "8"}}}, {"name": "BoxPredictor_2/Reshape/shape", "op": "Pack", "input": ["BoxPredictor_2/strided_slice", "BoxPredictor_0/Reshape/shape/1", "Preprocessor/map/TensorArrayUnstack/range/delta", "BoxPredictor_0/Reshape/shape/3"], "attr": {"T": {"type": "DT_INT32"}, "axis": {"i": "0"}, "N": {"i": "4"}}}, {"name": "BoxPredictor_2/Reshape_1/shape", "op": "Pack", "input": ["BoxPredictor_2/strided_slice", "BoxPredictor_0/Reshape/shape/1", "BoxPredictor_0/Reshape_1/shape/2"], "attr": {"axis": {"i": "0"}, "N": {"i": "3"}, "T": {"type": "DT_INT32"}}}, {"name": "FeatureExtractor/MobilenetV1/Conv2d_13_pointwise_1_Conv2d_3_1x1_128/Relu6", "op": "Relu6", "input": ["FeatureExtractor/MobilenetV1/Conv2d_13_pointwise_1_Conv2d_3_1x1_128/add_fold"], "attr": {"T": {"type": "DT_FLOAT"}}}, {"name": "BoxPredictor_2/Reshape", "op": "Reshape", "input": ["BoxPredictor_2/BoxEncodingPredictor/act_quant/FakeQuantWithMinMaxVars", "BoxPredictor_2/Reshape/shape"], "attr": {"T": {"type": "DT_FLOAT"}, "Tshape": {"type": "DT_INT32"}}}, {"name": "BoxPredictor_2/Reshape_1", "op": "Reshape", "input": ["BoxPredictor_2/ClassPredictor/act_quant/FakeQuantWithMinMaxVars", "BoxPredictor_2/Reshape_1/shape"], "attr": {"Tshape": {"type": "DT_INT32"}, "T": {"type": "DT_FLOAT"}}}, {"name": "FeatureExtractor/MobilenetV1/Conv2d_13_pointwise_1_Conv2d_3_1x1_128/act_quant/FakeQuantWithMinMaxVars", "op": "FakeQuantWithMinMaxVars", "input": ["FeatureExtractor/MobilenetV1/Conv2d_13_pointwise_1_Conv2d_3_1x1_128/Relu6", "FeatureExtractor/MobilenetV1/Conv2d_13_pointwise_1_Conv2d_3_1x1_128/act_quant/min", "FeatureExtractor/MobilenetV1/Conv2d_13_pointwise_1_Conv2d_3_1x1_128/act_quant/max"], "attr": {"narrow_range": {"b": false}, "num_bits": {"i": "8"}}}, {"name": "FeatureExtractor/MobilenetV1/Conv2d_13_pointwise_2_Conv2d_3_3x3_s2_256/Conv2D_Fold", "op": "Conv2D", "input": ["FeatureExtractor/MobilenetV1/Conv2d_13_pointwise_1_Conv2d_3_1x1_128/act_quant/FakeQuantWithMinMaxVars", "FeatureExtractor/MobilenetV1/Conv2d_13_pointwise_2_Conv2d_3_3x3_s2_256/weights_quant/FakeQuantWithMinMaxVars"], "device": "/device:CPU:0", "attr": {"dilations": {"list": {"i": ["1", "1", "1", "1"]}}, "T": {"type": "DT_FLOAT"}, "strides": {"list": {"i": ["1", "2", "2", "1"]}}, "data_format": {"s": "TkhXQw=="}, "use_cudnn_on_gpu": {"b": true}, "explicit_paddings": {"list": {}}, "padding": {"s": "U0FNRQ=="}}}, {"name": "FeatureExtractor/MobilenetV1/Conv2d_13_pointwise_2_Conv2d_3_3x3_s2_256/add_fold", "op": "Add", "input": ["FeatureExtractor/MobilenetV1/Conv2d_13_pointwise_2_Conv2d_3_3x3_s2_256/BatchNorm_Fold/bias", "FeatureExtractor/MobilenetV1/Conv2d_13_pointwise_2_Conv2d_3_3x3_s2_256/Conv2D_Fold"], "attr": {"T": {"type": "DT_FLOAT"}}}, {"name": "FeatureExtractor/MobilenetV1/Conv2d_13_pointwise_2_Conv2d_3_3x3_s2_256/Relu6", "op": "Relu6", "input": ["FeatureExtractor/MobilenetV1/Conv2d_13_pointwise_2_Conv2d_3_3x3_s2_256/add_fold"], "attr": {"T": {"type": "DT_FLOAT"}}}, {"name": "FeatureExtractor/MobilenetV1/Conv2d_13_pointwise_2_Conv2d_3_3x3_s2_256/act_quant/FakeQuantWithMinMaxVars", "op": "FakeQuantWithMinMaxVars", "input": ["FeatureExtractor/MobilenetV1/Conv2d_13_pointwise_2_Conv2d_3_3x3_s2_256/Relu6", "FeatureExtractor/MobilenetV1/Conv2d_13_pointwise_2_Conv2d_3_3x3_s2_256/act_quant/min", "FeatureExtractor/MobilenetV1/Conv2d_13_pointwise_2_Conv2d_3_3x3_s2_256/act_quant/max"], "attr": {"narrow_range": {"b": false}, "num_bits": {"i": "8"}}}, {"name": "BoxPredictor_3/ClassPredictor/BiasAdd", "op": "_FusedConv2D", "input": ["FeatureExtractor/MobilenetV1/Conv2d_13_pointwise_2_Conv2d_3_3x3_s2_256/act_quant/FakeQuantWithMinMaxVars", "BoxPredictor_3/ClassPredictor/weights_quant/FakeQuantWithMinMaxVars", "BoxPredictor_3/ClassPredictor/biases"], "device": "/device:CPU:0", "attr": {"dilations": {"list": {"i": ["1", "1", "1", "1"]}}, "T": {"type": "DT_FLOAT"}, "strides": {"list": {"i": ["1", "1", "1", "1"]}}, "data_format": {"s": "TkhXQw=="}, "use_cudnn_on_gpu": {"b": true}, "explicit_paddings": {"list": {}}, "num_args": {"i": "1"}, "epsilon": {"f": 0.0}, "padding": {"s": "U0FNRQ=="}, "fused_ops": {"list": {"s": ["Qmlhc0FkZA=="]}}}}, {"name": "BoxPredictor_3/Shape", "op": "Shape", "input": ["FeatureExtractor/MobilenetV1/Conv2d_13_pointwise_2_Conv2d_3_3x3_s2_256/act_quant/FakeQuantWithMinMaxVars"], "attr": {"T": {"type": "DT_FLOAT"}, "out_type": {"type": "DT_INT32"}}}, {"name": "FeatureExtractor/MobilenetV1/Conv2d_13_pointwise_1_Conv2d_4_1x1_128/Conv2D_Fold", "op": "Conv2D", "input": ["FeatureExtractor/MobilenetV1/Conv2d_13_pointwise_2_Conv2d_3_3x3_s2_256/act_quant/FakeQuantWithMinMaxVars", "FeatureExtractor/MobilenetV1/Conv2d_13_pointwise_1_Conv2d_4_1x1_128/weights_quant/FakeQuantWithMinMaxVars"], "device": "/device:CPU:0", "attr": {"dilations": {"list": {"i": ["1", "1", "1", "1"]}}, "T": {"type": "DT_FLOAT"}, "data_format": {"s": "TkhXQw=="}, "strides": {"list": {"i": ["1", "1", "1", "1"]}}, "use_cudnn_on_gpu": {"b": true}, "explicit_paddings": {"list": {}}, "padding": {"s": "U0FNRQ=="}}}, {"name": "BoxPredictor_3/BoxEncodingPredictor/BiasAdd", "op": "_FusedConv2D", "input": ["FeatureExtractor/MobilenetV1/Conv2d_13_pointwise_2_Conv2d_3_3x3_s2_256/act_quant/FakeQuantWithMinMaxVars", "BoxPredictor_3/BoxEncodingPredictor/weights_quant/FakeQuantWithMinMaxVars", "BoxPredictor_3/BoxEncodingPredictor/biases"], "device": "/device:CPU:0", "attr": {"fused_ops": {"list": {"s": ["Qmlhc0FkZA=="]}}, "dilations": {"list": {"i": ["1", "1", "1", "1"]}}, "T": {"type": "DT_FLOAT"}, "strides": {"list": {"i": ["1", "1", "1", "1"]}}, "data_format": {"s": "TkhXQw=="}, "explicit_paddings": {"list": {}}, "use_cudnn_on_gpu": {"b": true}, "num_args": {"i": "1"}, "epsilon": {"f": 0.0}, "padding": {"s": "U0FNRQ=="}}}, {"name": "BoxPredictor_3/ClassPredictor/act_quant/FakeQuantWithMinMaxVars", "op": "FakeQuantWithMinMaxVars", "input": ["BoxPredictor_3/ClassPredictor/BiasAdd", "BoxPredictor_3/ClassPredictor/act_quant/min", "BoxPredictor_3/ClassPredictor/act_quant/max"], "attr": {"narrow_range": {"b": false}, "num_bits": {"i": "8"}}}, {"name": "BoxPredictor_3/strided_slice", "op": "StridedSlice", "input": ["BoxPredictor_3/Shape", "Preprocessor/map/strided_slice/stack", "Preprocessor/map/strided_slice/stack_1", "Preprocessor/map/strided_slice/stack_1"], "attr": {"Index": {"type": "DT_INT32"}, "T": {"type": "DT_INT32"}, "shrink_axis_mask": {"i": "1"}, "begin_mask": {"i": "0"}, "ellipsis_mask": {"i": "0"}, "new_axis_mask": {"i": "0"}, "end_mask": {"i": "0"}}}, {"name": "FeatureExtractor/MobilenetV1/Conv2d_13_pointwise_1_Conv2d_4_1x1_128/add_fold", "op": "Add", "input": ["FeatureExtractor/MobilenetV1/Conv2d_13_pointwise_1_Conv2d_4_1x1_128/BatchNorm_Fold/bias", "FeatureExtractor/MobilenetV1/Conv2d_13_pointwise_1_Conv2d_4_1x1_128/Conv2D_Fold"], "attr": {"T": {"type": "DT_FLOAT"}}}, {"name": "BoxPredictor_3/BoxEncodingPredictor/act_quant/FakeQuantWithMinMaxVars", "op": "FakeQuantWithMinMaxVars", "input": ["BoxPredictor_3/BoxEncodingPredictor/BiasAdd", "BoxPredictor_3/BoxEncodingPredictor/act_quant/min", "BoxPredictor_3/BoxEncodingPredictor/act_quant/max"], "attr": {"narrow_range": {"b": false}, "num_bits": {"i": "8"}}}, {"name": "BoxPredictor_3/Reshape/shape", "op": "Pack", "input": ["BoxPredictor_3/strided_slice", "BoxPredictor_0/Reshape/shape/1", "Preprocessor/map/TensorArrayUnstack/range/delta", "BoxPredictor_0/Reshape/shape/3"], "attr": {"T": {"type": "DT_INT32"}, "axis": {"i": "0"}, "N": {"i": "4"}}}, {"name": "BoxPredictor_3/Reshape_1/shape", "op": "Pack", "input": ["BoxPredictor_3/strided_slice", "BoxPredictor_0/Reshape/shape/1", "BoxPredictor_0/Reshape_1/shape/2"], "attr": {"N": {"i": "3"}, "T": {"type": "DT_INT32"}, "axis": {"i": "0"}}}, {"name": "FeatureExtractor/MobilenetV1/Conv2d_13_pointwise_1_Conv2d_4_1x1_128/Relu6", "op": "Relu6", "input": ["FeatureExtractor/MobilenetV1/Conv2d_13_pointwise_1_Conv2d_4_1x1_128/add_fold"], "attr": {"T": {"type": "DT_FLOAT"}}}, {"name": "BoxPredictor_3/Reshape", "op": "Reshape", "input": ["BoxPredictor_3/BoxEncodingPredictor/act_quant/FakeQuantWithMinMaxVars", "BoxPredictor_3/Reshape/shape"], "attr": {"T": {"type": "DT_FLOAT"}, "Tshape": {"type": "DT_INT32"}}}, {"name": "BoxPredictor_3/Reshape_1", "op": "Reshape", "input": ["BoxPredictor_3/ClassPredictor/act_quant/FakeQuantWithMinMaxVars", "BoxPredictor_3/Reshape_1/shape"], "attr": {"T": {"type": "DT_FLOAT"}, "Tshape": {"type": "DT_INT32"}}}, {"name": "FeatureExtractor/MobilenetV1/Conv2d_13_pointwise_1_Conv2d_4_1x1_128/act_quant/FakeQuantWithMinMaxVars", "op": "FakeQuantWithMinMaxVars", "input": ["FeatureExtractor/MobilenetV1/Conv2d_13_pointwise_1_Conv2d_4_1x1_128/Relu6", "FeatureExtractor/MobilenetV1/Conv2d_13_pointwise_1_Conv2d_4_1x1_128/act_quant/min", "FeatureExtractor/MobilenetV1/Conv2d_13_pointwise_1_Conv2d_4_1x1_128/act_quant/max"], "attr": {"narrow_range": {"b": false}, "num_bits": {"i": "8"}}}, {"name": "FeatureExtractor/MobilenetV1/Conv2d_13_pointwise_2_Conv2d_4_3x3_s2_256/Conv2D_Fold", "op": "Conv2D", "input": ["FeatureExtractor/MobilenetV1/Conv2d_13_pointwise_1_Conv2d_4_1x1_128/act_quant/FakeQuantWithMinMaxVars", "FeatureExtractor/MobilenetV1/Conv2d_13_pointwise_2_Conv2d_4_3x3_s2_256/weights_quant/FakeQuantWithMinMaxVars"], "device": "/device:CPU:0", "attr": {"dilations": {"list": {"i": ["1", "1", "1", "1"]}}, "T": {"type": "DT_FLOAT"}, "data_format": {"s": "TkhXQw=="}, "strides": {"list": {"i": ["1", "2", "2", "1"]}}, "explicit_paddings": {"list": {}}, "use_cudnn_on_gpu": {"b": true}, "padding": {"s": "U0FNRQ=="}}}, {"name": "FeatureExtractor/MobilenetV1/Conv2d_13_pointwise_2_Conv2d_4_3x3_s2_256/add_fold", "op": "Add", "input": ["FeatureExtractor/MobilenetV1/Conv2d_13_pointwise_2_Conv2d_4_3x3_s2_256/BatchNorm_Fold/bias", "FeatureExtractor/MobilenetV1/Conv2d_13_pointwise_2_Conv2d_4_3x3_s2_256/Conv2D_Fold"], "attr": {"T": {"type": "DT_FLOAT"}}}, {"name": "FeatureExtractor/MobilenetV1/Conv2d_13_pointwise_2_Conv2d_4_3x3_s2_256/Relu6", "op": "Relu6", "input": ["FeatureExtractor/MobilenetV1/Conv2d_13_pointwise_2_Conv2d_4_3x3_s2_256/add_fold"], "attr": {"T": {"type": "DT_FLOAT"}}}, {"name": "FeatureExtractor/MobilenetV1/Conv2d_13_pointwise_2_Conv2d_4_3x3_s2_256/act_quant/FakeQuantWithMinMaxVars", "op": "FakeQuantWithMinMaxVars", "input": ["FeatureExtractor/MobilenetV1/Conv2d_13_pointwise_2_Conv2d_4_3x3_s2_256/Relu6", "FeatureExtractor/MobilenetV1/Conv2d_13_pointwise_2_Conv2d_4_3x3_s2_256/act_quant/min", "FeatureExtractor/MobilenetV1/Conv2d_13_pointwise_2_Conv2d_4_3x3_s2_256/act_quant/max"], "attr": {"narrow_range": {"b": false}, "num_bits": {"i": "8"}}}, {"name": "BoxPredictor_4/ClassPredictor/BiasAdd", "op": "_FusedConv2D", "input": ["FeatureExtractor/MobilenetV1/Conv2d_13_pointwise_2_Conv2d_4_3x3_s2_256/act_quant/FakeQuantWithMinMaxVars", "BoxPredictor_4/ClassPredictor/weights_quant/FakeQuantWithMinMaxVars", "BoxPredictor_4/ClassPredictor/biases"], "device": "/device:CPU:0", "attr": {"dilations": {"list": {"i": ["1", "1", "1", "1"]}}, "T": {"type": "DT_FLOAT"}, "data_format": {"s": "TkhXQw=="}, "strides": {"list": {"i": ["1", "1", "1", "1"]}}, "use_cudnn_on_gpu": {"b": true}, "explicit_paddings": {"list": {}}, "num_args": {"i": "1"}, "epsilon": {"f": 0.0}, "padding": {"s": "U0FNRQ=="}, "fused_ops": {"list": {"s": ["Qmlhc0FkZA=="]}}}}, {"name": "BoxPredictor_4/BoxEncodingPredictor/BiasAdd", "op": "_FusedConv2D", "input": ["FeatureExtractor/MobilenetV1/Conv2d_13_pointwise_2_Conv2d_4_3x3_s2_256/act_quant/FakeQuantWithMinMaxVars", "BoxPredictor_4/BoxEncodingPredictor/weights_quant/FakeQuantWithMinMaxVars", "BoxPredictor_4/BoxEncodingPredictor/biases"], "device": "/device:CPU:0", "attr": {"data_format": {"s": "TkhXQw=="}, "strides": {"list": {"i": ["1", "1", "1", "1"]}}, "use_cudnn_on_gpu": {"b": true}, "explicit_paddings": {"list": {}}, "num_args": {"i": "1"}, "epsilon": {"f": 0.0}, "padding": {"s": "U0FNRQ=="}, "fused_ops": {"list": {"s": ["Qmlhc0FkZA=="]}}, "dilations": {"list": {"i": ["1", "1", "1", "1"]}}, "T": {"type": "DT_FLOAT"}}}, {"name": "BoxPredictor_4/Shape", "op": "Shape", "input": ["FeatureExtractor/MobilenetV1/Conv2d_13_pointwise_2_Conv2d_4_3x3_s2_256/act_quant/FakeQuantWithMinMaxVars"], "attr": {"T": {"type": "DT_FLOAT"}, "out_type": {"type": "DT_INT32"}}}, {"name": "FeatureExtractor/MobilenetV1/Conv2d_13_pointwise_1_Conv2d_5_1x1_64/Conv2D_Fold", "op": "Conv2D", "input": ["FeatureExtractor/MobilenetV1/Conv2d_13_pointwise_2_Conv2d_4_3x3_s2_256/act_quant/FakeQuantWithMinMaxVars", "FeatureExtractor/MobilenetV1/Conv2d_13_pointwise_1_Conv2d_5_1x1_64/weights_quant/FakeQuantWithMinMaxVars"], "device": "/device:CPU:0", "attr": {"use_cudnn_on_gpu": {"b": true}, "explicit_paddings": {"list": {}}, "padding": {"s": "U0FNRQ=="}, "dilations": {"list": {"i": ["1", "1", "1", "1"]}}, "T": {"type": "DT_FLOAT"}, "strides": {"list": {"i": ["1", "1", "1", "1"]}}, "data_format": {"s": "TkhXQw=="}}}, {"name": "BoxPredictor_4/ClassPredictor/act_quant/FakeQuantWithMinMaxVars", "op": "FakeQuantWithMinMaxVars", "input": ["BoxPredictor_4/ClassPredictor/BiasAdd", "BoxPredictor_4/ClassPredictor/act_quant/min", "BoxPredictor_4/ClassPredictor/act_quant/max"], "attr": {"narrow_range": {"b": false}, "num_bits": {"i": "8"}}}, {"name": "BoxPredictor_4/BoxEncodingPredictor/act_quant/FakeQuantWithMinMaxVars", "op": "FakeQuantWithMinMaxVars", "input": ["BoxPredictor_4/BoxEncodingPredictor/BiasAdd", "BoxPredictor_4/BoxEncodingPredictor/act_quant/min", "BoxPredictor_4/BoxEncodingPredictor/act_quant/max"], "attr": {"narrow_range": {"b": false}, "num_bits": {"i": "8"}}}, {"name": "BoxPredictor_4/strided_slice", "op": "StridedSlice", "input": ["BoxPredictor_4/Shape", "Preprocessor/map/strided_slice/stack", "Preprocessor/map/strided_slice/stack_1", "Preprocessor/map/strided_slice/stack_1"], "attr": {"T": {"type": "DT_INT32"}, "Index": {"type": "DT_INT32"}, "shrink_axis_mask": {"i": "1"}, "ellipsis_mask": {"i": "0"}, "begin_mask": {"i": "0"}, "new_axis_mask": {"i": "0"}, "end_mask": {"i": "0"}}}, {"name": "FeatureExtractor/MobilenetV1/Conv2d_13_pointwise_1_Conv2d_5_1x1_64/add_fold", "op": "Add", "input": ["FeatureExtractor/MobilenetV1/Conv2d_13_pointwise_1_Conv2d_5_1x1_64/BatchNorm_Fold/bias", "FeatureExtractor/MobilenetV1/Conv2d_13_pointwise_1_Conv2d_5_1x1_64/Conv2D_Fold"], "attr": {"T": {"type": "DT_FLOAT"}}}, {"name": "BoxPredictor_4/Reshape/shape", "op": "Pack", "input": ["BoxPredictor_4/strided_slice", "BoxPredictor_0/Reshape/shape/1", "Preprocessor/map/TensorArrayUnstack/range/delta", "BoxPredictor_0/Reshape/shape/3"], "attr": {"T": {"type": "DT_INT32"}, "axis": {"i": "0"}, "N": {"i": "4"}}}, {"name": "BoxPredictor_4/Reshape_1/shape", "op": "Pack", "input": ["BoxPredictor_4/strided_slice", "BoxPredictor_0/Reshape/shape/1", "BoxPredictor_0/Reshape_1/shape/2"], "attr": {"T": {"type": "DT_INT32"}, "axis": {"i": "0"}, "N": {"i": "3"}}}, {"name": "FeatureExtractor/MobilenetV1/Conv2d_13_pointwise_1_Conv2d_5_1x1_64/Relu6", "op": "Relu6", "input": ["FeatureExtractor/MobilenetV1/Conv2d_13_pointwise_1_Conv2d_5_1x1_64/add_fold"], "attr": {"T": {"type": "DT_FLOAT"}}}, {"name": "BoxPredictor_4/Reshape", "op": "Reshape", "input": ["BoxPredictor_4/BoxEncodingPredictor/act_quant/FakeQuantWithMinMaxVars", "BoxPredictor_4/Reshape/shape"], "attr": {"T": {"type": "DT_FLOAT"}, "Tshape": {"type": "DT_INT32"}}}, {"name": "BoxPredictor_4/Reshape_1", "op": "Reshape", "input": ["BoxPredictor_4/ClassPredictor/act_quant/FakeQuantWithMinMaxVars", "BoxPredictor_4/Reshape_1/shape"], "attr": {"T": {"type": "DT_FLOAT"}, "Tshape": {"type": "DT_INT32"}}}, {"name": "FeatureExtractor/MobilenetV1/Conv2d_13_pointwise_1_Conv2d_5_1x1_64/act_quant/FakeQuantWithMinMaxVars", "op": "FakeQuantWithMinMaxVars", "input": ["FeatureExtractor/MobilenetV1/Conv2d_13_pointwise_1_Conv2d_5_1x1_64/Relu6", "FeatureExtractor/MobilenetV1/Conv2d_13_pointwise_1_Conv2d_5_1x1_64/act_quant/min", "FeatureExtractor/MobilenetV1/Conv2d_13_pointwise_1_Conv2d_5_1x1_64/act_quant/max"], "attr": {"narrow_range": {"b": false}, "num_bits": {"i": "8"}}}, {"name": "FeatureExtractor/MobilenetV1/Conv2d_13_pointwise_2_Conv2d_5_3x3_s2_128/Conv2D_Fold", "op": "Conv2D", "input": ["FeatureExtractor/MobilenetV1/Conv2d_13_pointwise_1_Conv2d_5_1x1_64/act_quant/FakeQuantWithMinMaxVars", "FeatureExtractor/MobilenetV1/Conv2d_13_pointwise_2_Conv2d_5_3x3_s2_128/weights_quant/FakeQuantWithMinMaxVars"], "device": "/device:CPU:0", "attr": {"dilations": {"list": {"i": ["1", "1", "1", "1"]}}, "T": {"type": "DT_FLOAT"}, "data_format": {"s": "TkhXQw=="}, "strides": {"list": {"i": ["1", "2", "2", "1"]}}, "use_cudnn_on_gpu": {"b": true}, "explicit_paddings": {"list": {}}, "padding": {"s": "U0FNRQ=="}}}, {"name": "FeatureExtractor/MobilenetV1/Conv2d_13_pointwise_2_Conv2d_5_3x3_s2_128/add_fold", "op": "Add", "input": ["FeatureExtractor/MobilenetV1/Conv2d_13_pointwise_2_Conv2d_5_3x3_s2_128/BatchNorm_Fold/bias", "FeatureExtractor/MobilenetV1/Conv2d_13_pointwise_2_Conv2d_5_3x3_s2_128/Conv2D_Fold"], "attr": {"T": {"type": "DT_FLOAT"}}}, {"name": "FeatureExtractor/MobilenetV1/Conv2d_13_pointwise_2_Conv2d_5_3x3_s2_128/Relu6", "op": "Relu6", "input": ["FeatureExtractor/MobilenetV1/Conv2d_13_pointwise_2_Conv2d_5_3x3_s2_128/add_fold"], "attr": {"T": {"type": "DT_FLOAT"}}}, {"name": "FeatureExtractor/MobilenetV1/Conv2d_13_pointwise_2_Conv2d_5_3x3_s2_128/act_quant/FakeQuantWithMinMaxVars", "op": "FakeQuantWithMinMaxVars", "input": ["FeatureExtractor/MobilenetV1/Conv2d_13_pointwise_2_Conv2d_5_3x3_s2_128/Relu6", "FeatureExtractor/MobilenetV1/Conv2d_13_pointwise_2_Conv2d_5_3x3_s2_128/act_quant/min", "FeatureExtractor/MobilenetV1/Conv2d_13_pointwise_2_Conv2d_5_3x3_s2_128/act_quant/max"], "attr": {"narrow_range": {"b": false}, "num_bits": {"i": "8"}}}, {"name": "BoxPredictor_5/Shape", "op": "Shape", "input": ["FeatureExtractor/MobilenetV1/Conv2d_13_pointwise_2_Conv2d_5_3x3_s2_128/act_quant/FakeQuantWithMinMaxVars"], "attr": {"T": {"type": "DT_FLOAT"}, "out_type": {"type": "DT_INT32"}}}, {"name": "BoxPredictor_5/BoxEncodingPredictor/BiasAdd", "op": "_FusedConv2D", "input": ["FeatureExtractor/MobilenetV1/Conv2d_13_pointwise_2_Conv2d_5_3x3_s2_128/act_quant/FakeQuantWithMinMaxVars", "BoxPredictor_5/BoxEncodingPredictor/weights_quant/FakeQuantWithMinMaxVars", "BoxPredictor_5/BoxEncodingPredictor/biases"], "device": "/device:CPU:0", "attr": {"num_args": {"i": "1"}, "epsilon": {"f": 0.0}, "padding": {"s": "U0FNRQ=="}, "fused_ops": {"list": {"s": ["Qmlhc0FkZA=="]}}, "dilations": {"list": {"i": ["1", "1", "1", "1"]}}, "T": {"type": "DT_FLOAT"}, "data_format": {"s": "TkhXQw=="}, "strides": {"list": {"i": ["1", "1", "1", "1"]}}, "explicit_paddings": {"list": {}}, "use_cudnn_on_gpu": {"b": true}}}, {"name": "BoxPredictor_5/ClassPredictor/BiasAdd", "op": "_FusedConv2D", "input": ["FeatureExtractor/MobilenetV1/Conv2d_13_pointwise_2_Conv2d_5_3x3_s2_128/act_quant/FakeQuantWithMinMaxVars", "BoxPredictor_5/ClassPredictor/weights_quant/FakeQuantWithMinMaxVars", "BoxPredictor_5/ClassPredictor/biases"], "device": "/device:CPU:0", "attr": {"dilations": {"list": {"i": ["1", "1", "1", "1"]}}, "T": {"type": "DT_FLOAT"}, "data_format": {"s": "TkhXQw=="}, "strides": {"list": {"i": ["1", "1", "1", "1"]}}, "use_cudnn_on_gpu": {"b": true}, "explicit_paddings": {"list": {}}, "num_args": {"i": "1"}, "epsilon": {"f": 0.0}, "padding": {"s": "U0FNRQ=="}, "fused_ops": {"list": {"s": ["Qmlhc0FkZA=="]}}}}, {"name": "BoxPredictor_5/strided_slice", "op": "StridedSlice", "input": ["BoxPredictor_5/Shape", "Preprocessor/map/strided_slice/stack", "Preprocessor/map/strided_slice/stack_1", "Preprocessor/map/strided_slice/stack_1"], "attr": {"Index": {"type": "DT_INT32"}, "T": {"type": "DT_INT32"}, "shrink_axis_mask": {"i": "1"}, "begin_mask": {"i": "0"}, "ellipsis_mask": {"i": "0"}, "new_axis_mask": {"i": "0"}, "end_mask": {"i": "0"}}}, {"name": "BoxPredictor_5/BoxEncodingPredictor/act_quant/FakeQuantWithMinMaxVars", "op": "FakeQuantWithMinMaxVars", "input": ["BoxPredictor_5/BoxEncodingPredictor/BiasAdd", "BoxPredictor_5/BoxEncodingPredictor/act_quant/min", "BoxPredictor_5/BoxEncodingPredictor/act_quant/max"], "attr": {"narrow_range": {"b": false}, "num_bits": {"i": "8"}}}, {"name": "BoxPredictor_5/ClassPredictor/act_quant/FakeQuantWithMinMaxVars", "op": "FakeQuantWithMinMaxVars", "input": ["BoxPredictor_5/ClassPredictor/BiasAdd", "BoxPredictor_5/ClassPredictor/act_quant/min", "BoxPredictor_5/ClassPredictor/act_quant/max"], "attr": {"narrow_range": {"b": false}, "num_bits": {"i": "8"}}}, {"name": "BoxPredictor_5/Reshape/shape", "op": "Pack", "input": ["BoxPredictor_5/strided_slice", "BoxPredictor_0/Reshape/shape/1", "Preprocessor/map/TensorArrayUnstack/range/delta", "BoxPredictor_0/Reshape/shape/3"], "attr": {"N": {"i": "4"}, "T": {"type": "DT_INT32"}, "axis": {"i": "0"}}}, {"name": "BoxPredictor_5/Reshape_1/shape", "op": "Pack", "input": ["BoxPredictor_5/strided_slice", "BoxPredictor_0/Reshape/shape/1", "BoxPredictor_0/Reshape_1/shape/2"], "attr": {"T": {"type": "DT_INT32"}, "axis": {"i": "0"}, "N": {"i": "3"}}}, {"name": "BoxPredictor_5/Reshape", "op": "Reshape", "input": ["BoxPredictor_5/BoxEncodingPredictor/act_quant/FakeQuantWithMinMaxVars", "BoxPredictor_5/Reshape/shape"], "attr": {"T": {"type": "DT_FLOAT"}, "Tshape": {"type": "DT_INT32"}}}, {"name": "BoxPredictor_5/Reshape_1", "op": "Reshape", "input": ["BoxPredictor_5/ClassPredictor/act_quant/FakeQuantWithMinMaxVars", "BoxPredictor_5/Reshape_1/shape"], "attr": {"T": {"type": "DT_FLOAT"}, "Tshape": {"type": "DT_INT32"}}}, {"name": "concat", "op": "ConcatV2", "input": ["BoxPredictor_0/Reshape", "BoxPredictor_1/Reshape", "BoxPredictor_2/Reshape", "BoxPredictor_3/Reshape", "BoxPredictor_4/Reshape", "BoxPredictor_5/Reshape", "Preprocessor/map/TensorArrayUnstack/range/delta"], "attr": {"T": {"type": "DT_FLOAT"}, "N": {"i": "6"}, "Tidx": {"type": "DT_INT32"}}}, {"name": "concat_1", "op": "ConcatV2", "input": ["BoxPredictor_0/Reshape_1", "BoxPredictor_1/Reshape_1", "BoxPredictor_2/Reshape_1", "BoxPredictor_3/Reshape_1", "BoxPredictor_4/Reshape_1", "BoxPredictor_5/Reshape_1", "Preprocessor/map/TensorArrayUnstack/range/delta"], "attr": {"T": {"type": "DT_FLOAT"}, "N": {"i": "6"}, "Tidx": {"type": "DT_INT32"}}}, {"name": "Squeeze", "op": "Squeeze", "input": ["concat"], "attr": {"squeeze_dims": {"list": {"i": ["2"]}}, "T": {"type": "DT_FLOAT"}}}, {"name": "Postprocessor/convert_scores", "op": "Sigmoid", "input": ["concat_1"], "attr": {"T": {"type": "DT_FLOAT"}}}, {"name": "Postprocessor/Shape", "op": "Shape", "input": ["Squeeze"], "attr": {"T": {"type": "DT_FLOAT"}, "out_type": {"type": "DT_INT32"}}}, {"name": "Postprocessor/Reshape_1", "op": "Reshape", "input": ["Squeeze", "Postprocessor/Reshape/shape"], "attr": {"T": {"type": "DT_FLOAT"}, "Tshape": {"type": "DT_INT32"}}}, {"name": "Postprocessor/Slice", "op": "Slice", "input": ["Postprocessor/convert_scores", "Postprocessor/Slice/begin", "Postprocessor/Slice/size"], "attr": {"T": {"type": "DT_FLOAT"}, "Index": {"type": "DT_INT32"}}}, {"name": "Postprocessor/strided_slice", "op": "StridedSlice", "input": ["Postprocessor/Shape", "Preprocessor/map/strided_slice/stack", "Preprocessor/map/strided_slice/stack_1", "Preprocessor/map/strided_slice/stack_1"], "attr": {"Index": {"type": "DT_INT32"}, "T": {"type": "DT_INT32"}, "shrink_axis_mask": {"i": "1"}, "ellipsis_mask": {"i": "0"}, "begin_mask": {"i": "0"}, "new_axis_mask": {"i": "0"}, "end_mask": {"i": "0"}}}, {"name": "Postprocessor/strided_slice_1", "op": "StridedSlice", "input": ["Postprocessor/Shape", "Preprocessor/map/strided_slice/stack_1", "Postprocessor/strided_slice_1/stack_1", "Preprocessor/map/strided_slice/stack_1"], "attr": {"new_axis_mask": {"i": "0"}, "end_mask": {"i": "0"}, "Index": {"type": "DT_INT32"}, "T": {"type": "DT_INT32"}, "shrink_axis_mask": {"i": "1"}, "begin_mask": {"i": "0"}, "ellipsis_mask": {"i": "0"}}}, {"name": "Postprocessor/Decode/transpose", "op": "Transpose", "input": ["Postprocessor/Reshape_1", "Postprocessor/Decode/get_center_coordinates_and_sizes/transpose/perm"], "attr": {"T": {"type": "DT_FLOAT"}, "Tperm": {"type": "DT_INT32"}}}, {"name": "Postprocessor/Tile/multiples", "op": "Pack", "input": ["Postprocessor/strided_slice", "Preprocessor/map/TensorArrayUnstack/range/delta", "Preprocessor/map/TensorArrayUnstack/range/delta"], "attr": {"T": {"type": "DT_INT32"}, "axis": {"i": "0"}, "N": {"i": "3"}}}, {"name": "Postprocessor/stack", "op": "Pack", "input": ["Postprocessor/strided_slice", "Postprocessor/strided_slice_1", "BoxPredictor_0/Reshape/shape/3"], "attr": {"T": {"type": "DT_INT32"}, "axis": {"i": "0"}, "N": {"i": "3"}}}, {"name": "Postprocessor/Decode/unstack", "op": "Unpack", "input": ["Postprocessor/Decode/transpose"], "attr": {"T": {"type": "DT_FLOAT"}, "num": {"i": "4"}, "axis": {"i": "0"}}}, {"name": "Postprocessor/Tile", "op": "Tile", "input": ["Postprocessor/ExpandDims", "Postprocessor/Tile/multiples"], "attr": {"Tmultiples": {"type": "DT_INT32"}, "T": {"type": "DT_FLOAT"}}}, {"name": "Postprocessor/Decode/truediv", "op": "Mul", "input": ["ConstantFolding/Postprocessor/Decode/truediv_recip", "Postprocessor/Decode/unstack"], "attr": {"T": {"type": "DT_FLOAT"}}}, {"name": "Postprocessor/Decode/truediv_1", "op": "Mul", "input": ["ConstantFolding/Postprocessor/Decode/truediv_recip", "Postprocessor/Decode/unstack:1"], "attr": {"T": {"type": "DT_FLOAT"}}}, {"name": "Postprocessor/Decode/truediv_2", "op": "Mul", "input": ["ConstantFolding/Postprocessor/Decode/truediv_2_recip", "Postprocessor/Decode/unstack:2"], "attr": {"T": {"type": "DT_FLOAT"}}}, {"name": "Postprocessor/Decode/truediv_3", "op": "Mul", "input": ["ConstantFolding/Postprocessor/Decode/truediv_2_recip", "Postprocessor/Decode/unstack:3"], "attr": {"T": {"type": "DT_FLOAT"}}}, {"name": "Postprocessor/Reshape", "op": "Reshape", "input": ["Postprocessor/Tile", "Postprocessor/Reshape/shape"], "attr": {"T": {"type": "DT_FLOAT"}, "Tshape": {"type": "DT_INT32"}}}, {"name": "Postprocessor/Decode/Exp_1", "op": "Exp", "input": ["Postprocessor/Decode/truediv_2"], "attr": {"T": {"type": "DT_FLOAT"}}}, {"name": "Postprocessor/Decode/Exp", "op": "Exp", "input": ["Postprocessor/Decode/truediv_3"], "attr": {"T": {"type": "DT_FLOAT"}}}, {"name": "Postprocessor/Decode/get_center_coordinates_and_sizes/transpose", "op": "Transpose", "input": ["Postprocessor/Reshape", "Postprocessor/Decode/get_center_coordinates_and_sizes/transpose/perm"], "attr": {"Tperm": {"type": "DT_INT32"}, "T": {"type": "DT_FLOAT"}}}, {"name": "Postprocessor/Decode/get_center_coordinates_and_sizes/unstack", "op": "Unpack", "input": ["Postprocessor/Decode/get_center_coordinates_and_sizes/transpose"], "attr": {"T": {"type": "DT_FLOAT"}, "num": {"i": "4"}, "axis": {"i": "0"}}}, {"name": "Postprocessor/Decode/get_center_coordinates_and_sizes/sub_1", "op": "Sub", "input": ["Postprocessor/Decode/get_center_coordinates_and_sizes/unstack:2", "Postprocessor/Decode/get_center_coordinates_and_sizes/unstack"], "attr": {"T": {"type": "DT_FLOAT"}}}, {"name": "Postprocessor/Decode/get_center_coordinates_and_sizes/sub", "op": "Sub", "input": ["Postprocessor/Decode/get_center_coordinates_and_sizes/unstack:3", "Postprocessor/Decode/get_center_coordinates_and_sizes/unstack:1"], "attr": {"T": {"type": "DT_FLOAT"}}}, {"name": "Postprocessor/Decode/get_center_coordinates_and_sizes/truediv", "op": "Mul", "input": ["ConstantFolding/Postprocessor/Decode/get_center_coordinates_and_sizes/truediv_recip", "Postprocessor/Decode/get_center_coordinates_and_sizes/sub_1"], "attr": {"T": {"type": "DT_FLOAT"}}}, {"name": "Postprocessor/Decode/mul_2", "op": "Mul", "input": ["Postprocessor/Decode/get_center_coordinates_and_sizes/sub_1", "Postprocessor/Decode/truediv"], "attr": {"T": {"type": "DT_FLOAT"}}}, {"name": "Postprocessor/Decode/get_center_coordinates_and_sizes/truediv_1", "op": "Mul", "input": ["ConstantFolding/Postprocessor/Decode/get_center_coordinates_and_sizes/truediv_recip", "Postprocessor/Decode/get_center_coordinates_and_sizes/sub"], "attr": {"T": {"type": "DT_FLOAT"}}}, {"name": "Postprocessor/Decode/mul_3", "op": "Mul", "input": ["Postprocessor/Decode/get_center_coordinates_and_sizes/sub", "Postprocessor/Decode/truediv_1"], "attr": {"T": {"type": "DT_FLOAT"}}}, {"name": "Postprocessor/Decode/get_center_coordinates_and_sizes/add", "op": "AddV2", "input": ["Postprocessor/Decode/get_center_coordinates_and_sizes/truediv", "Postprocessor/Decode/get_center_coordinates_and_sizes/unstack"], "attr": {"T": {"type": "DT_FLOAT"}}}, {"name": "Postprocessor/Decode/truediv_4", "op": "Mul", "input": ["Postprocessor/Decode/Exp_1", "Postprocessor/Decode/get_center_coordinates_and_sizes/truediv"], "attr": {"T": {"type": "DT_FLOAT"}}}, {"name": "Postprocessor/Decode/get_center_coordinates_and_sizes/add_1", "op": "AddV2", "input": ["Postprocessor/Decode/get_center_coordinates_and_sizes/truediv_1", "Postprocessor/Decode/get_center_coordinates_and_sizes/unstack:1"], "attr": {"T": {"type": "DT_FLOAT"}}}, {"name": "Postprocessor/Decode/truediv_5", "op": "Mul", "input": ["Postprocessor/Decode/Exp", "Postprocessor/Decode/get_center_coordinates_and_sizes/truediv_1"], "attr": {"T": {"type": "DT_FLOAT"}}}, {"name": "Postprocessor/Decode/add", "op": "AddV2", "input": ["Postprocessor/Decode/get_center_coordinates_and_sizes/add", "Postprocessor/Decode/mul_2"], "attr": {"T": {"type": "DT_FLOAT"}}}, {"name": "Postprocessor/Decode/add_1", "op": "AddV2", "input": ["Postprocessor/Decode/get_center_coordinates_and_sizes/add_1", "Postprocessor/Decode/mul_3"], "attr": {"T": {"type": "DT_FLOAT"}}}, {"name": "Postprocessor/Decode/sub", "op": "Sub", "input": ["Postprocessor/Decode/add", "Postprocessor/Decode/truediv_4"], "attr": {"T": {"type": "DT_FLOAT"}}}, {"name": "Postprocessor/Decode/add_2", "op": "AddV2", "input": ["Postprocessor/Decode/add", "Postprocessor/Decode/truediv_4"], "attr": {"T": {"type": "DT_FLOAT"}}}, {"name": "Postprocessor/Decode/sub_1", "op": "Sub", "input": ["Postprocessor/Decode/add_1", "Postprocessor/Decode/truediv_5"], "attr": {"T": {"type": "DT_FLOAT"}}}, {"name": "Postprocessor/Decode/add_3", "op": "AddV2", "input": ["Postprocessor/Decode/add_1", "Postprocessor/Decode/truediv_5"], "attr": {"T": {"type": "DT_FLOAT"}}}, {"name": "Postprocessor/Decode/stack", "op": "Pack", "input": ["Postprocessor/Decode/sub", "Postprocessor/Decode/sub_1", "Postprocessor/Decode/add_2", "Postprocessor/Decode/add_3"], "attr": {"axis": {"i": "0"}, "N": {"i": "4"}, "T": {"type": "DT_FLOAT"}}}, {"name": "Postprocessor/Decode/transpose_1", "op": "Transpose", "input": ["Postprocessor/Decode/stack", "Postprocessor/Decode/get_center_coordinates_and_sizes/transpose/perm"], "attr": {"T": {"type": "DT_FLOAT"}, "Tperm": {"type": "DT_INT32"}}}, {"name": "Postprocessor/Reshape_2", "op": "Reshape", "input": ["Postprocessor/Decode/transpose_1", "Postprocessor/stack"], "attr": {"T": {"type": "DT_FLOAT"}, "Tshape": {"type": "DT_INT32"}}}, {"name": "Postprocessor/ExpandDims_1", "op": "ExpandDims", "input": ["Postprocessor/Reshape_2", "Postprocessor/ExpandDims_1/dim"], "attr": {"Tdim": {"type": "DT_INT32"}, "T": {"type": "DT_FLOAT"}}}], "versions": {}}, "weightsManifest": [{"paths": ["group1-shard1of2.bin", "group1-shard2of2.bin"], "weights": [{"name": "Preprocessor/mul/x", "shape": [], "dtype": "float32", "quantization": {"min": 0.007843137718737125, "scale": 1.0, "dtype": "uint8"}}, {"name": "Preprocessor/sub/y", "shape": [], "dtype": "float32", "quantization": {"min": 1.0, "scale": 1.0, "dtype": "uint8"}}, {"name": "Preprocessor/map/strided_slice/stack", "shape": [1], "dtype": "int32"}, {"name": "Preprocessor/map/strided_slice/stack_1", "shape": [1], "dtype": "int32"}, {"name": "Preprocessor/map/TensorArrayUnstack/range/start", "shape": [], "dtype": "int32"}, {"name": "Preprocessor/map/TensorArrayUnstack/range/delta", "shape": [], "dtype": "int32"}, {"name": "BoxPredictor_4/ClassPredictor/act_quant/max", "shape": [], "dtype": "float32", "quantization": {"min": 0.9666138887405396, "scale": 1.0, "dtype": "uint8"}}, {"name": "BoxPredictor_3/BoxEncodingPredictor/act_quant/min", "shape": [], "dtype": "float32", "quantization": {"min": -3.9119861125946045, "scale": 1.0, "dtype": "uint8"}}, {"name": "BoxPredictor_5/BoxEncodingPredictor/act_quant/min", "shape": [], "dtype": "float32", "quantization": {"min": -2.608720302581787, "scale": 1.0, "dtype": "uint8"}}, {"name": "BoxPredictor_5/BoxEncodingPredictor/act_quant/max", "shape": [], "dtype": "float32", "quantization": {"min": 1.3949958086013794, "scale": 1.0, "dtype": "uint8"}}, {"name": "FeatureExtractor/MobilenetV1/MobilenetV1/Conv2d_11_pointwise/weights_quant/FakeQuantWithMinMaxVars", "shape": [1, 1, 512, 512], "dtype": "float32", "quantization": {"min": -0.35704699146981334, "scale": 0.0030258219616085876, "dtype": "uint8"}}, {"name": "FeatureExtractor/MobilenetV1/MobilenetV1/Conv2d_11_pointwise/act_quant/min", "shape": [], "dtype": "float32", "quantization": {"min": 0.0, "scale": 1.0, "dtype": "uint8"}}, {"name": "BoxPredictor_3/BoxEncodingPredictor/act_quant/max", "shape": [], "dtype": "float32", "quantization": {"min": 3.2293248176574707, "scale": 1.0, "dtype": "uint8"}}, {"name": "FeatureExtractor/MobilenetV1/MobilenetV1/Conv2d_11_pointwise/act_quant/max", "shape": [], "dtype": "float32", "quantization": {"min": 5.999761581420898, "scale": 1.0, "dtype": "uint8"}}, {"name": "FeatureExtractor/MobilenetV1/MobilenetV1/Conv2d_12_depthwise/weights_quant/FakeQuantWithMinMaxVars", "shape": [3, 3, 512, 1], "dtype": "float32", "quantization": {"min": -3.141975430881276, "scale": 0.032060973784502816, "dtype": "uint8"}}, {"name": "FeatureExtractor/MobilenetV1/MobilenetV1/Conv2d_12_pointwise/weights_quant/FakeQuantWithMinMaxVars", "shape": [1, 1, 512, 1024], "dtype": "float32", "quantization": {"min": -0.4579910675684611, "scale": 0.0038486644333484126, "dtype": "uint8"}}, {"name": "BoxPredictor_3/ClassPredictor/weights_quant/FakeQuantWithMinMaxVars", "shape": [1, 1, 256, 30], "dtype": "float32", "quantization": {"min": -0.2829983683193431, "scale": 0.002482441827362659, "dtype": "uint8"}}, {"name": "BoxPredictor_3/ClassPredictor/act_quant/min", "shape": [], "dtype": "float32", "quantization": {"min": -8.757081985473633, "scale": 1.0, "dtype": "uint8"}}, {"name": "FeatureExtractor/MobilenetV1/MobilenetV1/Conv2d_13_depthwise/weights_quant/FakeQuantWithMinMaxVars", "shape": [3, 3, 1024, 1], "dtype": "float32", "quantization": {"min": -2.084813123590806, "scale": 0.017667907827040728, "dtype": "uint8"}}, {"name": "BoxPredictor_4/ClassPredictor/weights_quant/FakeQuantWithMinMaxVars", "shape": [1, 1, 256, 30], "dtype": "float32", "quantization": {"min": -0.2297839837915757, "scale": 0.002188418893253102, "dtype": "uint8"}}, {"name": "BoxPredictor_3/ClassPredictor/act_quant/max", "shape": [], "dtype": "float32", "quantization": {"min": 2.3352413177490234, "scale": 1.0, "dtype": "uint8"}}, {"name": "FeatureExtractor/MobilenetV1/MobilenetV1/Conv2d_13_pointwise/weights_quant/FakeQuantWithMinMaxVars", "shape": [1, 1, 1024, 1024], "dtype": "float32", "quantization": {"min": -0.24463714478062648, "scale": 0.001926276730556114, "dtype": "uint8"}}, {"name": "FeatureExtractor/MobilenetV1/Conv2d_13_pointwise_1_Conv2d_2_1x1_256/weights_quant/FakeQuantWithMinMaxVars", "shape": [1, 1, 1024, 256], "dtype": "float32", "quantization": {"min": -0.5457976500193279, "scale": 0.004586534874111999, "dtype": "uint8"}}, {"name": "FeatureExtractor/MobilenetV1/Conv2d_13_pointwise_1_Conv2d_2_1x1_256/act_quant/min", "shape": [], "dtype": "float32", "quantization": {"min": -6.892744064331055, "scale": 1.0, "dtype": "uint8"}}, {"name": "BoxPredictor_4/ClassPredictor/act_quant/min", "shape": [], "dtype": "float32", "quantization": {"min": -7.523812770843506, "scale": 1.0, "dtype": "uint8"}}, {"name": "FeatureExtractor/MobilenetV1/Conv2d_13_pointwise_1_Conv2d_2_1x1_256/act_quant/max", "shape": [], "dtype": "float32", "quantization": {"min": 7.012933731079102, "scale": 1.0, "dtype": "uint8"}}, {"name": "BoxPredictor_4/BoxEncodingPredictor/weights_quant/FakeQuantWithMinMaxVars", "shape": [1, 1, 256, 24], "dtype": "float32", "quantization": {"min": -0.15185731696147545, "scale": 0.0009990612957991806, "dtype": "uint8"}}, {"name": "FeatureExtractor/MobilenetV1/Conv2d_13_pointwise_2_Conv2d_2_3x3_s2_512/weights_quant/FakeQuantWithMinMaxVars", "shape": [3, 3, 256, 512], "dtype": "float32", "quantization": {"min": -0.12398642549912134, "scale": 0.0014586638294014275, "dtype": "uint8"}}, {"name": "FeatureExtractor/MobilenetV1/Conv2d_13_pointwise_2_Conv2d_2_3x3_s2_512/act_quant/min", "shape": [], "dtype": "float32", "quantization": {"min": -6.486248016357422, "scale": 1.0, "dtype": "uint8"}}, {"name": "BoxPredictor_4/BoxEncodingPredictor/act_quant/min", "shape": [], "dtype": "float32", "quantization": {"min": -3.557619571685791, "scale": 1.0, "dtype": "uint8"}}, {"name": "FeatureExtractor/MobilenetV1/Conv2d_13_pointwise_2_Conv2d_2_3x3_s2_512/act_quant/max", "shape": [], "dtype": "float32", "quantization": {"min": 7.058759689331055, "scale": 1.0, "dtype": "uint8"}}, {"name": "BoxPredictor_4/BoxEncodingPredictor/act_quant/max", "shape": [], "dtype": "float32", "quantization": {"min": 2.2627105712890625, "scale": 1.0, "dtype": "uint8"}}, {"name": "FeatureExtractor/MobilenetV1/Conv2d_13_pointwise_1_Conv2d_3_1x1_128/weights_quant/FakeQuantWithMinMaxVars", "shape": [1, 1, 512, 128], "dtype": "float32", "quantization": {"min": -0.4461070506011739, "scale": 0.004092725234873155, "dtype": "uint8"}}, {"name": "FeatureExtractor/MobilenetV1/Conv2d_13_pointwise_1_Conv2d_3_1x1_128/act_quant/min", "shape": [], "dtype": "float32", "quantization": {"min": -4.041234016418457, "scale": 1.0, "dtype": "uint8"}}, {"name": "FeatureExtractor/MobilenetV1/Conv2d_13_pointwise_1_Conv2d_3_1x1_128/act_quant/max", "shape": [], "dtype": "float32", "quantization": {"min": 6.960888385772705, "scale": 1.0, "dtype": "uint8"}}, {"name": "FeatureExtractor/MobilenetV1/Conv2d_13_pointwise_2_Conv2d_3_3x3_s2_256/weights_quant/FakeQuantWithMinMaxVars", "shape": [3, 3, 128, 256], "dtype": "float32", "quantization": {"min": -0.20600302517414093, "scale": 0.0017311178586062264, "dtype": "uint8"}}, {"name": "FeatureExtractor/MobilenetV1/Conv2d_13_pointwise_2_Conv2d_3_3x3_s2_256/act_quant/min", "shape": [], "dtype": "float32", "quantization": {"min": -4.967592239379883, "scale": 1.0, "dtype": "uint8"}}, {"name": "FeatureExtractor/MobilenetV1/Conv2d_13_pointwise_2_Conv2d_3_3x3_s2_256/act_quant/max", "shape": [], "dtype": "float32", "quantization": {"min": 7.232258319854736, "scale": 1.0, "dtype": "uint8"}}, {"name": "FeatureExtractor/MobilenetV1/Conv2d_13_pointwise_1_Conv2d_4_1x1_128/weights_quant/FakeQuantWithMinMaxVars", "shape": [1, 1, 256, 128], "dtype": "float32", "quantization": {"min": -0.5734602212905884, "scale": 0.0056221590322606705, "dtype": "uint8"}}, {"name": "FeatureExtractor/MobilenetV1/Conv2d_13_pointwise_1_Conv2d_4_1x1_128/act_quant/min", "shape": [], "dtype": "float32", "quantization": {"min": -3.8481404781341553, "scale": 1.0, "dtype": "uint8"}}, {"name": "FeatureExtractor/MobilenetV1/Conv2d_13_pointwise_1_Conv2d_4_1x1_128/act_quant/max", "shape": [], "dtype": "float32", "quantization": {"min": 6.889394283294678, "scale": 1.0, "dtype": "uint8"}}, {"name": "FeatureExtractor/MobilenetV1/Conv2d_13_pointwise_2_Conv2d_4_3x3_s2_256/weights_quant/FakeQuantWithMinMaxVars", "shape": [3, 3, 128, 256], "dtype": "float32", "quantization": {"min": -0.18802656864418704, "scale": 0.0017572576508802526, "dtype": "uint8"}}, {"name": "FeatureExtractor/MobilenetV1/Conv2d_13_pointwise_2_Conv2d_4_3x3_s2_256/act_quant/min", "shape": [], "dtype": "float32", "quantization": {"min": -3.7274320125579834, "scale": 1.0, "dtype": "uint8"}}, {"name": "FeatureExtractor/MobilenetV1/Conv2d_13_pointwise_2_Conv2d_4_3x3_s2_256/act_quant/max", "shape": [], "dtype": "float32", "quantization": {"min": 6.435844421386719, "scale": 1.0, "dtype": "uint8"}}, {"name": "FeatureExtractor/MobilenetV1/Conv2d_13_pointwise_1_Conv2d_5_1x1_64/weights_quant/FakeQuantWithMinMaxVars", "shape": [1, 1, 256, 64], "dtype": "float32", "quantization": {"min": -0.29914128499872544, "scale": 0.0022835212595322552, "dtype": "uint8"}}, {"name": "FeatureExtractor/MobilenetV1/Conv2d_13_pointwise_1_Conv2d_5_1x1_64/act_quant/min", "shape": [], "dtype": "float32", "quantization": {"min": -3.179358959197998, "scale": 1.0, "dtype": "uint8"}}, {"name": "BoxPredictor_0/BoxEncodingPredictor/biases", "shape": [12], "dtype": "float32", "quantization": {"min": -0.06988479015873927, "scale": 0.002495885362812117, "dtype": "uint8"}}, {"name": "FeatureExtractor/MobilenetV1/Conv2d_13_pointwise_1_Conv2d_5_1x1_64/act_quant/max", "shape": [], "dtype": "float32", "quantization": {"min": 4.404531478881836, "scale": 1.0, "dtype": "uint8"}}, {"name": "BoxPredictor_0/Reshape/shape/1", "shape": [], "dtype": "int32"}, {"name": "BoxPredictor_0/Reshape/shape/3", "shape": [], "dtype": "int32"}, {"name": "BoxPredictor_0/ClassPredictor/biases", "shape": [15], "dtype": "float32", "quantization": {"min": -4.683908939361572, "scale": 0.006662340725169462, "dtype": "uint8"}}, {"name": "BoxPredictor_0/Reshape_1/shape/2", "shape": [], "dtype": "int32"}, {"name": "BoxPredictor_1/BoxEncodingPredictor/biases", "shape": [24], "dtype": "float32", "quantization": {"min": -0.6980200758167342, "scale": 0.005721476031284706, "dtype": "uint8"}}, {"name": "BoxPredictor_1/ClassPredictor/biases", "shape": [30], "dtype": "float32", "quantization": {"min": -4.660449504852295, "scale": 0.006988447787714939, "dtype": "uint8"}}, {"name": "FeatureExtractor/MobilenetV1/Conv2d_13_pointwise_2_Conv2d_5_3x3_s2_128/weights_quant/FakeQuantWithMinMaxVars", "shape": [3, 3, 64, 128], "dtype": "float32", "quantization": {"min": -0.2890111915036744, "scale": 0.002312089532029395, "dtype": "uint8"}}, {"name": "BoxPredictor_2/BoxEncodingPredictor/biases", "shape": [24], "dtype": "float32", "quantization": {"min": -0.31010434019799327, "scale": 0.0024226901577968224, "dtype": "uint8"}}, {"name": "BoxPredictor_2/ClassPredictor/biases", "shape": [30], "dtype": "float32", "quantization": {"min": -4.639464378356934, "scale": 0.0032079257217108035, "dtype": "uint8"}}, {"name": "FeatureExtractor/MobilenetV1/Conv2d_13_pointwise_2_Conv2d_5_3x3_s2_128/act_quant/min", "shape": [], "dtype": "float32", "quantization": {"min": -3.1430792808532715, "scale": 1.0, "dtype": "uint8"}}, {"name": "BoxPredictor_3/BoxEncodingPredictor/biases", "shape": [24], "dtype": "float32", "quantization": {"min": -0.2781148384599125, "scale": 0.0013836559127358829, "dtype": "uint8"}}, {"name": "FeatureExtractor/MobilenetV1/Conv2d_13_pointwise_2_Conv2d_5_3x3_s2_128/act_quant/max", "shape": [], "dtype": "float32", "quantization": {"min": 3.4877078533172607, "scale": 1.0, "dtype": "uint8"}}, {"name": "BoxPredictor_3/ClassPredictor/biases", "shape": [30], "dtype": "float32", "quantization": {"min": -4.643152713775635, "scale": 0.0015392022974350873, "dtype": "uint8"}}, {"name": "BoxPredictor_4/BoxEncodingPredictor/biases", "shape": [24], "dtype": "float32", "quantization": {"min": -0.28012241352276473, "scale": 0.0011720603076266307, "dtype": "uint8"}}, {"name": "BoxPredictor_4/ClassPredictor/biases", "shape": [30], "dtype": "float32", "quantization": {"min": -4.628688335418701, "scale": 0.0006899216595818014, "dtype": "uint8"}}, {"name": "BoxPredictor_5/BoxEncodingPredictor/weights_quant/FakeQuantWithMinMaxVars", "shape": [1, 1, 128, 24], "dtype": "float32", "quantization": {"min": -0.10908226683443668, "scale": 0.0008726581346754934, "dtype": "uint8"}}, {"name": "BoxPredictor_5/BoxEncodingPredictor/biases", "shape": [24], "dtype": "float32", "quantization": {"min": -0.4035498680766014, "scale": 0.0016206822011108491, "dtype": "uint8"}}, {"name": "BoxPredictor_5/ClassPredictor/biases", "shape": [30], "dtype": "float32", "quantization": {"min": -4.599999904632568, "scale": 0.0007587638555788526, "dtype": "uint8"}}, {"name": "Postprocessor/strided_slice_1/stack_1", "shape": [1], "dtype": "int32"}, {"name": "Postprocessor/Reshape/shape", "shape": [2], "dtype": "int32"}, {"name": "Postprocessor/Decode/get_center_coordinates_and_sizes/transpose/perm", "shape": [2], "dtype": "int32"}, {"name": "Postprocessor/ExpandDims_1/dim", "shape": [], "dtype": "int32"}, {"name": "Postprocessor/Slice/begin", "shape": [3], "dtype": "int32"}, {"name": "Postprocessor/Slice/size", "shape": [3], "dtype": "int32"}, {"name": "BoxPredictor_5/ClassPredictor/act_quant/min", "shape": [], "dtype": "float32", "quantization": {"min": -5.569125652313232, "scale": 1.0, "dtype": "uint8"}}, {"name": "BoxPredictor_5/ClassPredictor/act_quant/max", "shape": [], "dtype": "float32", "quantization": {"min": 0.5248858332633972, "scale": 1.0, "dtype": "uint8"}}, {"name": "BoxPredictor_5/ClassPredictor/weights_quant/FakeQuantWithMinMaxVars", "shape": [1, 1, 128, 30], "dtype": "float32", "quantization": {"min": -0.19462344646453858, "scale": 0.0016354911467608283, "dtype": "uint8"}}, {"name": "FeatureExtractor/MobilenetV1/MobilenetV1/Conv2d_0/BatchNorm_Fold/bias", "shape": [32], "dtype": "float32", "quantization": {"min": -0.8248705457238591, "scale": 0.009481270640504127, "dtype": "uint8"}}, {"name": "FeatureExtractor/MobilenetV1/MobilenetV1/Conv2d_1_depthwise/BatchNorm_Fold/bias", "shape": [32], "dtype": "float32", "quantization": {"min": -1.7941853579352884, "scale": 0.018123084423588773, "dtype": "uint8"}}, {"name": "FeatureExtractor/MobilenetV1/MobilenetV1/Conv2d_1_pointwise/BatchNorm_Fold/bias", "shape": [64], "dtype": "float32", "quantization": {"min": -1.6742032925287882, "scale": 0.014815958340962727, "dtype": "uint8"}}, {"name": "FeatureExtractor/MobilenetV1/MobilenetV1/Conv2d_2_depthwise/BatchNorm_Fold/bias", "shape": [64], "dtype": "float32", "quantization": {"min": -1.5526965870576748, "scale": 0.01617392278185078, "dtype": "uint8"}}, {"name": "FeatureExtractor/MobilenetV1/MobilenetV1/Conv2d_2_pointwise/BatchNorm_Fold/bias", "shape": [128], "dtype": "float32", "quantization": {"min": -1.886256670484356, "scale": 0.013283497679467295, "dtype": "uint8"}}, {"name": "FeatureExtractor/MobilenetV1/MobilenetV1/Conv2d_3_depthwise/BatchNorm_Fold/bias", "shape": [128], "dtype": "float32", "quantization": {"min": -1.100895315993066, "scale": 0.0100081392363006, "dtype": "uint8"}}, {"name": "FeatureExtractor/MobilenetV1/MobilenetV1/Conv2d_3_pointwise/BatchNorm_Fold/bias", "shape": [128], "dtype": "float32", "quantization": {"min": -1.9878457621032117, "scale": 0.017285615322636623, "dtype": "uint8"}}, {"name": "FeatureExtractor/MobilenetV1/MobilenetV1/Conv2d_4_depthwise/BatchNorm_Fold/bias", "shape": [128], "dtype": "float32", "quantization": {"min": -0.8009449743757061, "scale": 0.009767621638728123, "dtype": "uint8"}}, {"name": "FeatureExtractor/MobilenetV1/MobilenetV1/Conv2d_4_pointwise/BatchNorm_Fold/bias", "shape": [256], "dtype": "float32", "quantization": {"min": -1.2622480069889743, "scale": 0.012497505019692814, "dtype": "uint8"}}, {"name": "FeatureExtractor/MobilenetV1/MobilenetV1/Conv2d_5_depthwise/BatchNorm_Fold/bias", "shape": [256], "dtype": "float32", "quantization": {"min": -0.9296372058344822, "scale": 0.008938819286870021, "dtype": "uint8"}}, {"name": "FeatureExtractor/MobilenetV1/MobilenetV1/Conv2d_5_pointwise/BatchNorm_Fold/bias", "shape": [256], "dtype": "float32", "quantization": {"min": -2.4137495040893557, "scale": 0.01577614054960363, "dtype": "uint8"}}, {"name": "FeatureExtractor/MobilenetV1/MobilenetV1/Conv2d_6_depthwise/BatchNorm_Fold/bias", "shape": [256], "dtype": "float32", "quantization": {"min": -0.7979761600494385, "scale": 0.0078232956867592, "dtype": "uint8"}}, {"name": "FeatureExtractor/MobilenetV1/MobilenetV1/Conv2d_6_pointwise/BatchNorm_Fold/bias", "shape": [512], "dtype": "float32", "quantization": {"min": -1.2119875431060791, "scale": 0.011882230814765481, "dtype": "uint8"}}, {"name": "FeatureExtractor/MobilenetV1/MobilenetV1/Conv2d_7_depthwise/BatchNorm_Fold/bias", "shape": [512], "dtype": "float32", "quantization": {"min": -1.036340930415135, "scale": 0.00849459779028799, "dtype": "uint8"}}, {"name": "FeatureExtractor/MobilenetV1/MobilenetV1/Conv2d_7_pointwise/BatchNorm_Fold/bias", "shape": [512], "dtype": "float32", "quantization": {"min": -1.2944096303453632, "scale": 0.011767360275866938, "dtype": "uint8"}}, {"name": "FeatureExtractor/MobilenetV1/MobilenetV1/Conv2d_8_depthwise/BatchNorm_Fold/bias", "shape": [512], "dtype": "float32", "quantization": {"min": -0.9097924989812515, "scale": 0.008424004620196773, "dtype": "uint8"}}, {"name": "FeatureExtractor/MobilenetV1/MobilenetV1/Conv2d_8_pointwise/BatchNorm_Fold/bias", "shape": [512], "dtype": "float32", "quantization": {"min": -1.5855992055406756, "scale": 0.013437281402887082, "dtype": "uint8"}}, {"name": "FeatureExtractor/MobilenetV1/MobilenetV1/Conv2d_9_depthwise/BatchNorm_Fold/bias", "shape": [512], "dtype": "float32", "quantization": {"min": -1.0423793231739718, "scale": 0.008686494359783099, "dtype": "uint8"}}, {"name": "FeatureExtractor/MobilenetV1/MobilenetV1/Conv2d_9_pointwise/BatchNorm_Fold/bias", "shape": [512], "dtype": "float32", "quantization": {"min": -1.3364360425986497, "scale": 0.012260881124758254, "dtype": "uint8"}}, {"name": "FeatureExtractor/MobilenetV1/MobilenetV1/Conv2d_10_depthwise/BatchNorm_Fold/bias", "shape": [512], "dtype": "float32", "quantization": {"min": -0.9447072660221774, "scale": 0.01005007729810827, "dtype": "uint8"}}, {"name": "FeatureExtractor/MobilenetV1/MobilenetV1/Conv2d_10_pointwise/BatchNorm_Fold/bias", "shape": [512], "dtype": "float32", "quantization": {"min": -1.2043104424196132, "scale": 0.010564126687891343, "dtype": "uint8"}}, {"name": "FeatureExtractor/MobilenetV1/MobilenetV1/Conv2d_11_depthwise/BatchNorm_Fold/bias", "shape": [512], "dtype": "float32", "quantization": {"min": -0.9136386724079356, "scale": 0.010501593935723398, "dtype": "uint8"}}, {"name": "FeatureExtractor/MobilenetV1/MobilenetV1/Conv2d_11_pointwise/BatchNorm_Fold/bias", "shape": [512], "dtype": "float32", "quantization": {"min": -1.5163686462477142, "scale": 0.011664374201905494, "dtype": "uint8"}}, {"name": "FeatureExtractor/MobilenetV1/MobilenetV1/Conv2d_12_depthwise/BatchNorm_Fold/bias", "shape": [512], "dtype": "float32", "quantization": {"min": -0.9658051771276137, "scale": 0.011923520705279182, "dtype": "uint8"}}, {"name": "FeatureExtractor/MobilenetV1/MobilenetV1/Conv2d_12_pointwise/BatchNorm_Fold/bias", "shape": [1024], "dtype": "float32", "quantization": {"min": -1.5206920913621491, "scale": 0.012464689273460238, "dtype": "uint8"}}, {"name": "FeatureExtractor/MobilenetV1/MobilenetV1/Conv2d_13_depthwise/BatchNorm_Fold/bias", "shape": [1024], "dtype": "float32", "quantization": {"min": -1.4985476479810826, "scale": 0.012183314211228315, "dtype": "uint8"}}, {"name": "FeatureExtractor/MobilenetV1/MobilenetV1/Conv2d_13_pointwise/BatchNorm_Fold/bias", "shape": [1024], "dtype": "float32", "quantization": {"min": -1.6141828032100902, "scale": 0.015228139652925379, "dtype": "uint8"}}, {"name": "FeatureExtractor/MobilenetV1/Conv2d_13_pointwise_1_Conv2d_2_1x1_256/BatchNorm_Fold/bias", "shape": [256], "dtype": "float32", "quantization": {"min": -1.173058658955144, "scale": 0.012890754494012571, "dtype": "uint8"}}, {"name": "FeatureExtractor/MobilenetV1/Conv2d_13_pointwise_2_Conv2d_2_3x3_s2_512/BatchNorm_Fold/bias", "shape": [512], "dtype": "float32", "quantization": {"min": -0.2784073834325753, "scale": 0.008980883336534688, "dtype": "uint8"}}, {"name": "FeatureExtractor/MobilenetV1/Conv2d_13_pointwise_1_Conv2d_3_1x1_128/BatchNorm_Fold/bias", "shape": [128], "dtype": "float32", "quantization": {"min": -1.3471667205586153, "scale": 0.011817251934724696, "dtype": "uint8"}}, {"name": "FeatureExtractor/MobilenetV1/Conv2d_13_pointwise_2_Conv2d_3_3x3_s2_256/BatchNorm_Fold/bias", "shape": [256], "dtype": "float32", "quantization": {"min": -0.8817900010183746, "scale": 0.011451818195043826, "dtype": "uint8"}}, {"name": "FeatureExtractor/MobilenetV1/Conv2d_13_pointwise_1_Conv2d_4_1x1_128/BatchNorm_Fold/bias", "shape": [128], "dtype": "float32", "quantization": {"min": -0.8046818452722886, "scale": 0.01257315383237951, "dtype": "uint8"}}, {"name": "FeatureExtractor/MobilenetV1/Conv2d_13_pointwise_2_Conv2d_4_3x3_s2_256/BatchNorm_Fold/bias", "shape": [256], "dtype": "float32", "quantization": {"min": -0.7707336668874702, "scale": 0.008758337123721253, "dtype": "uint8"}}, {"name": "FeatureExtractor/MobilenetV1/Conv2d_13_pointwise_1_Conv2d_5_1x1_64/BatchNorm_Fold/bias", "shape": [64], "dtype": "float32", "quantization": {"min": -0.6332717308811113, "scale": 0.008919320153255089, "dtype": "uint8"}}, {"name": "FeatureExtractor/MobilenetV1/Conv2d_13_pointwise_2_Conv2d_5_3x3_s2_128/BatchNorm_Fold/bias", "shape": [128], "dtype": "float32", "quantization": {"min": -0.906760664547191, "scale": 0.015112677742453182, "dtype": "uint8"}}, {"name": "FeatureExtractor/MobilenetV1/MobilenetV1/Conv2d_0/weights_quant/FakeQuantWithMinMaxVars", "shape": [3, 3, 3, 32], "dtype": "float32", "quantization": {"min": -0.9397956623750575, "scale": 0.007831630519792146, "dtype": "uint8"}}, {"name": "FeatureExtractor/MobilenetV1/MobilenetV1/Conv2d_1_depthwise/weights_quant/FakeQuantWithMinMaxVars", "shape": [3, 3, 32, 1], "dtype": "float32", "quantization": {"min": -1.3736423254013062, "scale": 0.012375156084696451, "dtype": "uint8"}}, {"name": "BoxPredictor_0/BoxEncodingPredictor/weights_quant/FakeQuantWithMinMaxVars", "shape": [1, 1, 512, 12], "dtype": "float32", "quantization": {"min": -0.4654112160205841, "scale": 0.0029271145661671958, "dtype": "uint8"}}, {"name": "FeatureExtractor/MobilenetV1/MobilenetV1/Conv2d_1_pointwise/weights_quant/FakeQuantWithMinMaxVars", "shape": [1, 1, 32, 64], "dtype": "float32", "quantization": {"min": -0.6513133013949675, "scale": 0.006087040199952967, "dtype": "uint8"}}, {"name": "BoxPredictor_0/BoxEncodingPredictor/act_quant/min", "shape": [], "dtype": "float32", "quantization": {"min": -15.011255264282227, "scale": 1.0, "dtype": "uint8"}}, {"name": "FeatureExtractor/MobilenetV1/MobilenetV1/Conv2d_1_pointwise/act_quant/max", "shape": [], "dtype": "float32", "quantization": {"min": 5.823037624359131, "scale": 1.0, "dtype": "uint8"}}, {"name": "BoxPredictor_0/BoxEncodingPredictor/act_quant/max", "shape": [], "dtype": "float32", "quantization": {"min": 11.332287788391113, "scale": 1.0, "dtype": "uint8"}}, {"name": "FeatureExtractor/MobilenetV1/MobilenetV1/Conv2d_2_depthwise/weights_quant/FakeQuantWithMinMaxVars", "shape": [3, 3, 64, 1], "dtype": "float32", "quantization": {"min": -25.350130632811904, "scale": 0.11021795927309523, "dtype": "uint8"}}, {"name": "FeatureExtractor/MobilenetV1/MobilenetV1/Conv2d_2_pointwise/weights_quant/FakeQuantWithMinMaxVars", "shape": [1, 1, 64, 128], "dtype": "float32", "quantization": {"min": -0.7610401286798365, "scale": 0.006187318119348265, "dtype": "uint8"}}, {"name": "BoxPredictor_0/ClassPredictor/weights_quant/FakeQuantWithMinMaxVars", "shape": [1, 1, 512, 15], "dtype": "float32", "quantization": {"min": -0.41041663522813837, "scale": 0.0033918730184143665, "dtype": "uint8"}}, {"name": "FeatureExtractor/MobilenetV1/MobilenetV1/Conv2d_3_depthwise/weights_quant/FakeQuantWithMinMaxVars", "shape": [3, 3, 128, 1], "dtype": "float32", "quantization": {"min": -2.4426732007194967, "scale": 0.01938629524380553, "dtype": "uint8"}}, {"name": "BoxPredictor_0/ClassPredictor/act_quant/min", "shape": [], "dtype": "float32", "quantization": {"min": -32.961265563964844, "scale": 1.0, "dtype": "uint8"}}, {"name": "BoxPredictor_0/ClassPredictor/act_quant/max", "shape": [], "dtype": "float32", "quantization": {"min": 3.675520181655884, "scale": 1.0, "dtype": "uint8"}}, {"name": "FeatureExtractor/MobilenetV1/MobilenetV1/Conv2d_3_pointwise/weights_quant/FakeQuantWithMinMaxVars", "shape": [1, 1, 128, 128], "dtype": "float32", "quantization": {"min": -0.5441910421147066, "scale": 0.0044605823124156275, "dtype": "uint8"}}, {"name": "FeatureExtractor/MobilenetV1/MobilenetV1/Conv2d_4_depthwise/weights_quant/FakeQuantWithMinMaxVars", "shape": [3, 3, 128, 1], "dtype": "float32", "quantization": {"min": -1.705642667471194, "scale": 0.013120328211316876, "dtype": "uint8"}}, {"name": "BoxPredictor_1/BoxEncodingPredictor/weights_quant/FakeQuantWithMinMaxVars", "shape": [1, 1, 1024, 24], "dtype": "float32", "quantization": {"min": -0.3617787985240712, "scale": 0.002602725169237922, "dtype": "uint8"}}, {"name": "FeatureExtractor/MobilenetV1/MobilenetV1/Conv2d_4_pointwise/weights_quant/FakeQuantWithMinMaxVars", "shape": [1, 1, 128, 256], "dtype": "float32", "quantization": {"min": -0.44555577460457296, "scale": 0.004203356364194085, "dtype": "uint8"}}, {"name": "BoxPredictor_1/BoxEncodingPredictor/act_quant/min", "shape": [], "dtype": "float32", "quantization": {"min": -4.783976078033447, "scale": 1.0, "dtype": "uint8"}}, {"name": "FeatureExtractor/MobilenetV1/MobilenetV1/Conv2d_5_depthwise/weights_quant/FakeQuantWithMinMaxVars", "shape": [3, 3, 256, 1], "dtype": "float32", "quantization": {"min": -1.783683587990555, "scale": 0.01438454506443996, "dtype": "uint8"}}, {"name": "BoxPredictor_1/BoxEncodingPredictor/act_quant/max", "shape": [], "dtype": "float32", "quantization": {"min": 5.588754653930664, "scale": 1.0, "dtype": "uint8"}}, {"name": "FeatureExtractor/MobilenetV1/MobilenetV1/Conv2d_5_pointwise/weights_quant/FakeQuantWithMinMaxVars", "shape": [1, 1, 256, 256], "dtype": "float32", "quantization": {"min": -0.6929274201393127, "scale": 0.0045289373865314555, "dtype": "uint8"}}, {"name": "FeatureExtractor/MobilenetV1/MobilenetV1/Conv2d_6_depthwise/weights_quant/FakeQuantWithMinMaxVars", "shape": [3, 3, 256, 1], "dtype": "float32", "quantization": {"min": -1.3196802672217873, "scale": 0.01047365291445863, "dtype": "uint8"}}, {"name": "BoxPredictor_1/ClassPredictor/weights_quant/FakeQuantWithMinMaxVars", "shape": [1, 1, 1024, 30], "dtype": "float32", "quantization": {"min": -0.6430668877620324, "scale": 0.004230703208960739, "dtype": "uint8"}}, {"name": "BoxPredictor_1/ClassPredictor/act_quant/min", "shape": [], "dtype": "float32", "quantization": {"min": -28.67380142211914, "scale": 1.0, "dtype": "uint8"}}, {"name": "FeatureExtractor/MobilenetV1/MobilenetV1/Conv2d_6_pointwise/weights_quant/FakeQuantWithMinMaxVars", "shape": [1, 1, 256, 512], "dtype": "float32", "quantization": {"min": -0.3114878804075952, "scale": 0.002708590264413871, "dtype": "uint8"}}, {"name": "BoxPredictor_1/ClassPredictor/act_quant/max", "shape": [], "dtype": "float32", "quantization": {"min": 4.506277561187744, "scale": 1.0, "dtype": "uint8"}}, {"name": "FeatureExtractor/MobilenetV1/MobilenetV1/Conv2d_7_depthwise/weights_quant/FakeQuantWithMinMaxVars", "shape": [3, 3, 512, 1], "dtype": "float32", "quantization": {"min": -1.7284856394225476, "scale": 0.0176376085655362, "dtype": "uint8"}}, {"name": "FeatureExtractor/MobilenetV1/MobilenetV1/Conv2d_7_pointwise/weights_quant/FakeQuantWithMinMaxVars", "shape": [1, 1, 512, 512], "dtype": "float32", "quantization": {"min": -0.2335716982682546, "scale": 0.0033367385466893515, "dtype": "uint8"}}, {"name": "BoxPredictor_2/BoxEncodingPredictor/weights_quant/FakeQuantWithMinMaxVars", "shape": [1, 1, 512, 24], "dtype": "float32", "quantization": {"min": -0.22708540745809966, "scale": 0.0019746557170269535, "dtype": "uint8"}}, {"name": "FeatureExtractor/MobilenetV1/MobilenetV1/Conv2d_8_depthwise/weights_quant/FakeQuantWithMinMaxVars", "shape": [3, 3, 512, 1], "dtype": "float32", "quantization": {"min": -1.2955145232817706, "scale": 0.016824863938724295, "dtype": "uint8"}}, {"name": "BoxPredictor_2/BoxEncodingPredictor/act_quant/min", "shape": [], "dtype": "float32", "quantization": {"min": -4.146522045135498, "scale": 1.0, "dtype": "uint8"}}, {"name": "BoxPredictor_2/BoxEncodingPredictor/act_quant/max", "shape": [], "dtype": "float32", "quantization": {"min": 4.225549697875977, "scale": 1.0, "dtype": "uint8"}}, {"name": "FeatureExtractor/MobilenetV1/MobilenetV1/Conv2d_8_pointwise/weights_quant/FakeQuantWithMinMaxVars", "shape": [1, 1, 512, 512], "dtype": "float32", "quantization": {"min": -0.25758375630659214, "scale": 0.002430035436854643, "dtype": "uint8"}}, {"name": "FeatureExtractor/MobilenetV1/MobilenetV1/Conv2d_9_depthwise/weights_quant/FakeQuantWithMinMaxVars", "shape": [3, 3, 512, 1], "dtype": "float32", "quantization": {"min": -1.3932839005601172, "scale": 0.013794890104555617, "dtype": "uint8"}}, {"name": "BoxPredictor_2/ClassPredictor/weights_quant/FakeQuantWithMinMaxVars", "shape": [1, 1, 512, 30], "dtype": "float32", "quantization": {"min": -0.41812945616011526, "scale": 0.0031918279096192007, "dtype": "uint8"}}, {"name": "FeatureExtractor/MobilenetV1/MobilenetV1/Conv2d_9_pointwise/weights_quant/FakeQuantWithMinMaxVars", "shape": [1, 1, 512, 512], "dtype": "float32", "quantization": {"min": -0.31168041556489234, "scale": 0.0026869001341801066, "dtype": "uint8"}}, {"name": "BoxPredictor_2/ClassPredictor/act_quant/min", "shape": [], "dtype": "float32", "quantization": {"min": -12.795467376708984, "scale": 1.0, "dtype": "uint8"}}, {"name": "BoxPredictor_2/ClassPredictor/act_quant/max", "shape": [], "dtype": "float32", "quantization": {"min": 3.843909740447998, "scale": 1.0, "dtype": "uint8"}}, {"name": "FeatureExtractor/MobilenetV1/MobilenetV1/Conv2d_10_depthwise/weights_quant/FakeQuantWithMinMaxVars", "shape": [3, 3, 512, 1], "dtype": "float32", "quantization": {"min": -1.5734336843677597, "scale": 0.01484371400346943, "dtype": "uint8"}}, {"name": "FeatureExtractor/MobilenetV1/MobilenetV1/Conv2d_10_pointwise/weights_quant/FakeQuantWithMinMaxVars", "shape": [1, 1, 512, 512], "dtype": "float32", "quantization": {"min": -0.30450799044440774, "scale": 0.0027188213432536405, "dtype": "uint8"}}, {"name": "BoxPredictor_3/BoxEncodingPredictor/weights_quant/FakeQuantWithMinMaxVars", "shape": [1, 1, 256, 24], "dtype": "float32", "quantization": {"min": -0.20548221994848812, "scale": 0.0014573207088545257, "dtype": "uint8"}}, {"name": "FeatureExtractor/MobilenetV1/MobilenetV1/Conv2d_11_depthwise/weights_quant/FakeQuantWithMinMaxVars", "shape": [3, 3, 512, 1], "dtype": "float32", "quantization": {"min": -1.387427843318266, "scale": 0.011858357635198855, "dtype": "uint8"}}, {"name": "ConstantFolding/Postprocessor/Decode/get_center_coordinates_and_sizes/truediv_recip", "shape": [], "dtype": "float32", "quantization": {"min": 0.5, "scale": 1.0, "dtype": "uint8"}}, {"name": "ConstantFolding/Postprocessor/Decode/truediv_recip", "shape": [], "dtype": "float32", "quantization": {"min": 0.10000000149011612, "scale": 1.0, "dtype": "uint8"}}, {"name": "ConstantFolding/Postprocessor/Decode/truediv_2_recip", "shape": [], "dtype": "float32", "quantization": {"min": 0.20000000298023224, "scale": 1.0, "dtype": "uint8"}}, {"name": "Postprocessor/ExpandDims", "shape": [1, 1917, 4], "dtype": "float32", "quantization": {"min": -0.44369642874773807, "scale": 0.007394940479128968, "dtype": "uint8"}}, {"name": "Preprocessor/map/while/add/y", "shape": [], "dtype": "int32"}, {"name": "Preprocessor/map/while/ResizeImage/stack", "shape": [2], "dtype": "int32"}, {"name": "Preprocessor/map/while/ResizeImage/resize/ExpandDims/dim", "shape": [], "dtype": "int32"}]}]}